models/bezrelu_lstm_4_hidden_50_onecycle_1e-2-1e-8_rmsprop1e-3_700epoch_loss_2.6346476078033447.pt (torch_old, 807839 bytes, 35 tensors)

weight f4 [88, 88]
000000 35 09 78 3f db 4b f0 3e 40 a1 57 3f 98 0c 43 3f
       0.9688905 0.46932873 0.8423042 0.7619109
000010 d2 82 e6 3e 61 31 c5 3f eb 49 0b 3f d0 ee cf 3e
       0.45021683 1.5405694 0.54409665 0.40611887
000020 41 a6 22 3f ff 79 17 3f e6 3b 72 3d 71 0c 6a bf
       0.63534933 0.59170526 0.059139155 -0.91425234
000030 3c 5b d1 be 35 41 bf 3f 68 ff 01 40 be e6 df be
       -0.4088992 1.4941775 2.0312138 -0.4373073
000040 33 19 aa 3e 42 7c 3c bf ea 03 00 bf e9 a3 3f 3f
       0.3322235 -0.736271 -0.5000597 0.7485948
000050 ef 47 13 bf e3 0b 23 bd b6 1a c2 bd 3f 66 05 3f
       -0.57531637 -0.039806258 -0.09477751 0.5210914
000060 66 10 24 3f 7e ef 81 3f 37 b6 0c 40 ce 00 4d bf
       0.6408752 1.0151212 2.1986215 -0.8007935
000070 4a d1 ab be ab 32 3c bf 05 cb 4c be 55 26 a4 bf
       -0.33558112 -0.73514813 -0.19999321 -1.2824198
000080 9f ef 36 be 04 e8 b2 be 30 a3 de 3f 27 37 d5 3e
       -0.17864846 -0.3494264 1.7393551 0.4164364
000090 66 46 2d bf 12 37 c9 be 03 76 50 bf 99 b6 63 bf
       -0.67685544 -0.39299828 -0.8143007 -0.88950497
0000a0 54 13 6d 3f 72 6c f8 bf 3d 96 16 be 37 b0 52 40
       0.9260762 -1.9408095 -0.14705749 3.2920053
0000b0 f9 fa 42 3f 70 67 cf bf 1e df 91 3e e2 c2 9e bf
       0.76164204 -1.6203442 0.28490537 -1.2403224
0000c0 41 9d 88 bf cb 70 00 bf 51 34 2d 40 84 e6 af 3f
       -1.067299 -0.5017211 2.7063181 1.3742223
0000d0 e8 08 d7 bf ba 5e 25 bf 9b af fe 3f 31 38 8f bd
       -1.6799593 -0.64597666 1.989734 -0.069931395
0000e0 60 43 a3 3f 60 03 19 3f 7c 91 a2 3e 2f b4 9b 3f
       1.2754936 0.59770775 0.3175162 1.2164363
0000f0 4c a3 90 bf 07 b7 fc 3e 89 e1 07 3f dd 60 3a bf
       -1.1299834 0.4935839 0.53078514 -0.7280405
000100 07 b8 a5 be 84 d5 9a be ec f7 21 3f 4f 05 57 3f
       -0.32366964 -0.30241024 0.63268924 0.83992475
000110 e0 f3 68 bd a0 4c 5c 3e a1 49 bf bf e5 4f 64 be
       -0.056873202 0.21513605 -1.4944345 -0.22296102
000120 ec e8 c0 3f 68 0a ea 3e 5d f1 29 bf 9f 5f df 3d
       1.5071082 0.45711064 -0.66383916 0.1090691
000130 91 22 6b 3f e3 24 7c 3f 46 39 4f bf 8f bd 9e 3c
       0.9184962 0.98493785 -0.8094677 0.019377498
000140 a3 7a 02 3f 45 e1 1b 3f f4 f3 7b 3f 06 69 5c c0
       0.5096838 0.6089061 0.9841912 -3.4439101
000150 47 f6 8b 3e 2a f1 c8 bf fe 1b 9e bf 01 f0 6a be
       0.27336332 -1.5698597 -1.2352293 -0.22943117
000160 a0 57 ab bd cf ab 84 bf 1f 53 15 bf 89 2b 16 bf
       -0.083663225 -1.0364932 -0.5832996 -0.5866018
000170 8d b7 c7 bf e9 60 9b be b4 d3 82 3f 22 86 bd 3e
       -1.560289 -0.30347374 1.0220857 0.37016398
000180 e6 09 83 3e 25 16 92 bf 65 ba 98 3c 8f 9d 05 40
       0.2559349 -1.1413008 0.018643567 2.0877416
000190 ed b0 8a bf 66 15 dd be 03 d1 47 bf 3b 4b c7 bf
       -1.0835243 -0.43180388 -0.780533 -1.5569834
0001a0 b8 25 7e bf 4c 25 36 3f 34 c9 f2 3f e0 76 08 3f
       -0.99276304 0.7115066 1.8967652 0.5330639
0001b0 9c 31 5f be 81 49 e7 be 81 3e d5 bf 46 64 2a bf
       -0.21796268 -0.45173267 -1.66597 -0.66559255
0001c0 40 5c 59 bf c1 7a bb 3e db c6 49 3d 24 8b 53 3e
       -0.8490639 0.3661709 0.04926191 0.20658547
0001d0 8a c1 b6 3c 30 07 07 c0 c3 16 98 3f 50 d5 a8 3e
       0.022309083 -2.1098137 1.1881946 0.32975245
0001e0 0e 5f 1d 3f d8 c6 5c 3e 73 1d 1b 3d 62 d0 50 3f
       0.61473167 0.21560228 0.03786988 0.81567967
0001f0 6f 8f 3d 3e a8 43 b7 bc 8a 29 1f 3f ba 54 6f 3e
       0.18511747 -0.022371128 0.6217276 0.23372164
000200 71 a4 ae 3e e3 b8 b9 bf 82 2c d1 3f d7 bf 12 bf
       0.34109834 -1.4509548 1.6341708 -0.57323974
000210 d5 38 fe bd 38 91 b8 3f d2 03 6a bf ce d7 4e bf
       -0.124131836 1.4419317 -0.9141208 -0.8079804
000220 4b ea d4 be f1 f1 76 3f fc c7 af bf d6 4c b9 3e
       -0.41585 0.96462923 -1.3732905 0.36191434
000230 e4 5c db be 01 86 0d 40 a4 d4 9c bd 66 43 8c 3e
       -0.42844307 2.211304 -0.076577455 0.2739517
000240 30 55 b0 3c 92 83 f8 3f 6e 22 8a be 99 26 b3 3f
       0.021524996 1.9415152 -0.26979393 1.3996154
000250 a0 31 0f bf 03 8f 72 bf a6 a1 b9 3f a9 7b 4d 3f
       -0.55935097 -0.9474947 1.4502456 0.80266815
000260 f1 2d d6 3e b4 61 29 c0 7c 52 16 40 04 ac 67 3f
       0.41831926 -2.6465883 2.3487844 0.9049685
000270 93 d3 4b 3f e6 fc a0 3e e5 04 32 bf c5 a6 91 bf
       0.7961971 0.31442946 -0.6953872 -1.1379019
000280 86 f2 17 3c 7c e1 48 bf 49 d7 6e be 79 00 a5 3e
       0.009274131 -0.7846906 -0.23324312 0.32226923
000290 10 f5 29 bf 7c a8 44 bf d3 c0 aa bf 28 b3 e5 3f
       -0.6638956 -0.76819587 -1.3340095 1.7945299
0002a0 88 0b 8f be 39 36 cf 3d 9e da e7 be 5a 67 70 bf
       -0.27938485 0.10117764 -0.4528398 -0.939077
0002b0 07 38 31 bf 32 81 74 3e a3 2d f2 3e 6c 89 90 bd
       -0.69226116 0.23877409 0.47300443 -0.07057461
0002c0 f4 8f 18 bf 42 a8 b2 3f ba 1b 00 c0 cd f3 3a bf
       -0.59594655 1.3957598 -2.0016923 -0.7302826
0002d0 1b e6 6a 3e 0e 80 63 3f ee 99 8f bf d2 77 ae be
       0.22939341 0.8886727 -1.1218851 -0.3407579
0002e0 c5 77 67 bd 36 63 e4 3f 1e dd 0d 40 5a 4b 8c 3f
       -0.056510706 1.7842777 2.216621 1.0960495
0002f0 99 92 21 bf 1f 0f c7 3f 75 40 fd be f1 d3 e9 3e
       -0.63114315 1.555149 -0.4946324 0.4566951
000300 b3 fd 2d c0 29 58 41 3f 99 78 9e 3f 7d c8 50 3f
       -2.7186096 0.75525147 1.2380553 0.8155592
000310 f1 8f 33 3b fd fd a2 bf 2b e5 ac 3f fa d8 bd 3e
       0.0027399028 -1.2733761 1.3507437 0.37079602
000320 58 51 ad bc 3b cb ee bd ae 64 b0 bf 5e 71 36 3e
       -0.021156952 -0.11659857 -1.3780725 0.17816684
000330 7b 21 7b bf a5 54 5b 3f 6b 54 57 bf 62 ae 1f be
       -0.9809796 0.8567603 -0.84113187 -0.15593866
000340 3b 49 3f 3d 3d da df 3f 47 66 cb 3f 93 4e 96 bf
       0.046700697 1.7488476 1.5890588 -1.1742729
000350 8a 4f c3 3a 4c 9b a3 3c f9 61 8d 3f 84 42 21 be
       0.0014901024 0.019971512 1.1045524 -0.1574803
000360 63 04 d3 bf 65 f6 28 c0 15 9e 1c bf f6 5e ab be
       -1.6485714 -2.6400387 -0.61178714 -0.33470887
000370 af b0 88 bf f2 54 2e 3f d2 09 0d bf 19 d9 72 bf
       -1.067892 0.68098366 -0.5509311 -0.94862515
000380 31 f9 06 bf 8b 0b ea bf c7 9f 23 3f 6d 71 3a bf
       -0.52723986 -1.8284773 0.63915676 -0.72829324
000390 34 ab 1c 3f d0 d0 21 3e c4 9e 29 3f e5 bc 69 be
       0.61198735 0.15802312 0.6625788 -0.22825964
0003a0 29 11 06 bf a6 3a 48 3e 80 d3 ca be 0c 6a be 3f
       -0.52369934 0.19553623 -0.39614487 1.4876113
0003b0 b6 05 f9 3e cb d6 e2 3d a7 91 ee 3f b9 4a d6 3e
       0.4863717 0.11076125 1.86382 0.41853884
0003c0 3c f2 dc 3e 7b 5c c0 3e c6 3b ab 3f ed 75 96 3f
       0.4315356 0.37570557 1.3377616 1.1754738
0003d0 d0 8c c5 bf eb 76 85 bd db f0 49 3f 71 48 eb 3d
       -1.5433598 -0.065168224 0.7888314 0.114884265
0003e0 4b 87 c1 bf 05 b8 21 bf e9 15 01 3e e6 83 fb 3f
       -1.5119413 -0.63171417 0.12606014 1.9649627
0003f0 2e af fa bc ac db ba bf 42 d3 69 3f 35 7f 0b 3f
       -0.03060111 -1.4598289 0.9133798 0.5449098

weight_ih_l0 f4 [150, 88]
000000 4c 23 05 3e f1 6c fa 3d aa 70 71 bd 7b c3 82 bd
       0.13001746 0.1222781 -0.058945335 -0.06384941
000010 f3 f6 b4 bd 59 6f e8 3c 16 6c 8f bd 46 1c ec bd
       -0.08836164 0.028373407 -0.07003038 -0.1152883
000020 f8 73 40 bd d8 26 86 3d 6d f1 0b 3e 75 a0 fb 3c
       -0.046985596 0.065503776 0.13666315 0.03071616
000030 b0 3b 25 3d 11 cf c2 3d b0 b8 0e 3e f0 72 ae 3c
       0.040340126 0.09512151 0.1393764 0.02129504
000040 c3 6c 25 bc 50 06 57 3b aa d1 0f be 1b 5f df bc
       -0.010096732 0.003281016 -0.14044824 -0.02726703
000050 af 25 0f be b4 ab fc 3c 7a 82 c7 3b eb 5b e0 3d
       -0.13979219 0.030843593 0.006088552 0.10955032
000060 2d 57 c7 3c fe b1 0b 3e b8 38 08 3e 21 ae 56 3d
       0.02433356 0.13642117 0.13302886 0.052412156
000070 0b e4 57 3d 0a 5d f7 bd 48 56 65 3b da 27 fa 3c
       0.052707713 -0.12078293 0.0034994055 0.03053658
000080 03 58 c3 bd 78 ba 99 3d 06 71 3e bc c6 ae cb bd
       -0.09538271 0.07506269 -0.011623627 -0.09945445
000090 7e 22 fa 3d ba b4 68 bd 65 0a d2 3d 0d 65 8d bd
       0.1221361 -0.05681298 0.10255889 -0.069040395
0000a0 9e 3b 49 3d b5 87 8c 3d 9e 14 76 ba 83 d3 03 bd
       0.04912912 0.068618216 -0.00093872275 -0.032184135
0000b0 ef a0 f3 bc db 2d dc bd 00 f8 41 bd 08 34 29 bd
       -0.029739825 -0.10750934 -0.04735565 -0.041309386
0000c0 e9 8c 19 3d 0b 38 bc bd 3f 96 a9 3c bc d9 e4 bd
       0.037487898 -0.09190377 0.020701526 -0.11174342
0000d0 94 59 a0 3d 0b aa e1 3d a6 a5 f0 bd 2e c9 bb bd
       0.07829586 0.11018761 -0.11750345 -0.09169231
0000e0 2e b3 79 3b 37 33 be 3d ce 9b 01 3e 8b 56 0f 3b
       0.0038101184 0.09287112 0.12657091 0.0021871652
0000f0 67 25 9a 3d 00 6b 9b bd 06 54 10 3e 53 98 11 be
       0.07526665 -0.07588768 0.14094552 -0.14218263
000100 a7 8a d4 bd cb 1a 0f bd 84 40 11 3e b3 85 d4 bd
       -0.10378008 -0.03493766 0.14184767 -0.103770636
000110 66 f1 aa bd 15 df 13 3d 14 3e be 3c 04 59 d9 3d
       -0.08346824 0.03610142 0.02322296 0.106126815
000120 2d 48 6f bd a0 ce 07 bd 0d 5f 35 bd 9e 87 89 3d
       -0.05841844 -0.033156037 -0.0442801 0.0671532
000130 fc b2 cd 3d a8 fe a9 3d 1f 1f 94 3c 84 56 6b bc
       0.10043904 0.08300525 0.018081246 -0.014363889
000140 11 a3 26 3d 33 f6 f9 bc b6 29 85 3d b6 18 c4 3d
       0.040682856 -0.030512905 0.06502096 0.09575026
000150 9d d3 24 3e 30 7f 8f 3c 2f c3 a6 3d 9b 71 96 3d
       0.16096349 0.017516702 0.08142697 0.07345887
000160 35 d3 0b bd 8d 65 5b bd aa 50 4d 3d c3 30 8e bd
       -0.03413697 -0.053563643 0.050125755 -0.06942894
000170 ed 68 82 3c 01 24 1a 3d e6 52 bd bd f0 fb c8 3d
       0.015919173 0.037631992 -0.09244327 0.09813678
000180 dd a3 ee bd 7a 47 3f bd 2e 68 d7 bc 90 69 a7 3d
       -0.11652348 -0.046699025 -0.026294794 0.08174431
000190 5a 8e 17 3e f2 31 ee bc 1f 74 03 3d 32 1d 6e bd
       0.14800397 -0.02907655 0.032093164 -0.05813331
0001a0 1d de 7f 3d 3c a3 56 3d 95 1d d5 3d 6f 92 99 bb
       0.062467683 0.052401766 0.10406033 -0.0046866457
0001b0 79 fb f7 3b be 18 46 3c 82 00 37 3c 02 54 91 bc
       0.0075678197 0.01209086 0.011169555 -0.017740253
0001c0 ed 07 a3 3d f0 3b be 3d ec 0d 88 3d 52 fd 66 bb
       0.07960496 0.09288776 0.066432804 -0.0035246206
0001d0 f8 8b 47 bd 45 33 9d 3d 7d e2 19 bd 4e 99 65 bd
       -0.04871747 0.076757945 -0.03756951 -0.056054406
0001e0 99 3a ab 3c e0 51 ce 3d 83 4c 34 bd 1f 66 fc 3d
       0.020901965 0.1007421 -0.04401828 0.123241656
0001f0 48 af 45 bd 8c dd 0e 3d 57 7e 85 3d b7 06 fa 3d
       -0.048262864 0.034879252 0.06518238 0.12208312
000200 0e c5 c7 3d e9 c1 89 3d 21 70 2e bd 6d c0 c1 bc
       0.09754382 0.067264386 -0.042587403 -0.023651326
000210 7f 07 ec 3d c2 72 37 3b 63 64 89 bd 56 2c 82 3c
       0.11524867 0.0027991985 -0.067086 0.015890282
000220 d7 a8 15 bc 2e b1 08 3e 8b de 1a bd 58 eb b5 bd
       -0.009134493 0.13348839 -0.03780989 -0.08882779
000230 7b 1b 07 3d ec 63 11 3a 10 ea 69 3c 85 e5 6d 3d
       0.03298519 0.00055462006 0.014276996 0.058080215
000240 42 12 a8 3d ad 10 5d bd 8a 09 29 3e a9 8b e3 3d
       0.082066074 -0.05397098 0.16507545 0.111106224
000250 f1 25 3a 3b 0c 8f 16 bd 0a 6b 02 3e 80 0b fc 3c
       0.0028403962 -0.036757514 0.12736145 0.030767202
000260 da dd a5 3d dd 53 40 bd 8b 0e b1 3b bc 6a d6 3d
       0.080989555 -0.04695498 0.005403345 0.10469577
000270 60 20 ea bc 27 42 53 3d 2a c5 14 be ca fd a1 3d
       -0.02857989 0.05157676 -0.14528337 0.079097345
000280 a7 ac 17 3e 63 bb aa 3c 0e 20 af 3d 7a 7b 13 3a
       0.14811955 0.020841306 0.08551036 0.00056260044
000290 3d df 84 bc f9 de e7 3b bb 9f 09 3e 41 1f 04 3d
       -0.01621973 0.007076141 0.13439839 0.03225637
0002a0 85 f8 22 bd 10 b4 ed bd a5 15 cb bc 40 62 f9 bc
       -0.039787788 -0.1160661 -0.024790594 -0.030442357
0002b0 8f 1c 3d 3a 1f f2 c2 bd 51 59 9d bd 49 ef ca bd
       0.00072140334 -0.09518837 -0.076830514 -0.09908921
0002c0 97 18 f4 3d 2c d1 0b 3e 6a 44 ed 3d 12 56 39 3e
       0.11918753 0.13654011 0.115853146 0.1809924
0002d0 c0 0a c5 3d 2b 2c 9f 3d 22 53 b4 bd 77 ce b4 bd
       0.09621191 0.07772096 -0.08804919 -0.088284425
0002e0 3a 9a 8e bb 7b b1 ee 3d 2c 01 e4 3d d0 ec 6d 3c
       -0.0043518813 0.116549455 0.11133036 0.0145217925
0002f0 63 e6 a9 3d 5b ef ea bd 3c 1f 18 3d a5 57 4b bd
       0.08295896 -0.11471435 0.037139162 -0.04964413
000300 42 fb 5b bd af d2 2b be c9 31 ca bd 09 a7 4e bc
       -0.053706415 -0.16779588 -0.09872777 -0.0126130665
000310 36 b9 c1 bd b0 00 0c 3e d0 d9 63 bd 5e 14 c5 bc
       -0.09459154 0.13672137 -0.055627644 -0.024057563
000320 cc ce 0b 3e 13 48 a8 bc c9 1a 13 bc 66 0e cf 3c
       0.13653105 -0.02054218 -0.008978554 0.02527542
000330 98 4f c7 3b a6 2c d3 bd 32 84 bf 3c 3d 78 16 bd
       0.0060824864 -0.103112504 0.023378465 -0.036735762
000340 29 23 a2 bd 5b e2 7e 3c b3 81 40 bd 35 aa b1 bd
       -0.079168625 0.015556897 -0.04699869 -0.086750425
000350 85 61 e1 bc 43 1a 86 3c 95 d8 3b be 1c d9 eb 3c
       -0.027512321 0.016369944 -0.18344338 0.02879005
000360 a5 8a 0d bd 5d 3f d0 3d 71 d8 3c bd c6 47 f8 3c
       -0.03455605 0.101683356 -0.046104852 0.030307662
000370 87 6f 92 3c ec e2 95 bd de 20 c3 3c 24 3b 75 bd
       0.017875446 -0.073186725 0.023819383 -0.059870854
000380 ab 33 12 3d 2d 46 a4 bd 28 2a 81 3d 89 d6 d2 3a
       0.035693806 -0.080211975 0.06306869 0.0016085665
000390 57 51 12 bc 88 7b 93 bd c2 91 8c bd b0 42 87 bc
       -0.008930526 -0.07201296 -0.068637386 -0.016511291
0003a0 e5 02 1c 3d fc fd 9f 3d ca 0e 36 bd 75 59 e9 bb
       0.038088698 0.078121156 -0.044447698 -0.00712126
0003b0 24 a2 19 be a1 fd 0a 3e 41 de f6 bd 36 0d 8d 3c
       -0.15003258 0.13573314 -0.1205411 0.017218214
0003c0 50 7a 6e bc f5 ce 1b 3d 80 40 59 bd d9 2b c3 3d
       -0.014555529 0.038039166 -0.053040028 0.09529848
0003d0 0c 42 0a 3e fa 33 d8 3d de 35 04 be 29 68 ce 3c
       0.13501757 0.10556789 -0.12911174 0.025196152
0003e0 09 bf e2 3d db 1a 8d bd f5 01 05 bc cc 56 cb bd
       0.11071593 -0.06889888 -0.008118142 -0.099286646
0003f0 68 d2 d5 bd 59 fa a4 3c d0 2d e0 bc b2 39 e0 3d
       -0.104405224 0.020138906 -0.027365595 0.109485045

weight_hh_l0 f4 [150, 50]
000000 af 41 08 3d 3e eb 4a bd 62 7f ab bd 06 e3 b3 bd
       0.033265766 -0.04954075 -0.08373906 -0.08783536
000010 eb 53 1b bc e0 09 02 3e 2c 3b bc 3d d1 96 55 bd
       -0.009480457 0.1269908 0.09190974 -0.052145783
000020 51 7a ac 3b e6 a4 1a 3d 11 8f a8 3d de 46 39 3e
       0.0052636047 0.037754916 0.08230413 0.1809344
000030 5b a1 56 bd d6 6b d7 bc 4a 13 08 be 38 1e 81 bd
       -0.052399974 -0.026296537 -0.13288608 -0.06304592
000040 95 ac 9f 3d 53 e6 9b bd 16 61 95 3d c2 8e 39 3d
       0.07796589 -0.0761229 0.07293908 0.04530216
000050 3e e7 ba bc 3f 63 2c 3e ac cf a0 bd 8f 1c 75 ba
       -0.022815343 0.16834734 -0.0785211 -0.0009350264
000060 25 7f cf 3d 0d 8b 96 3d 3f e5 a9 bd da 40 d7 3d
       0.10131673 0.073507406 -0.08295678 0.10510416
000070 af dc a4 3d f3 33 23 bd 7d 2f 2b bd 2e bb 78 3d
       0.080499046 -0.039844465 -0.041793335 0.060725383
000080 c9 41 c0 3c e6 34 6e bd 16 f6 2f 3d b3 b0 c8 bd
       0.023468869 -0.058155917 0.042959295 -0.09799328
000090 cc c5 00 be 27 2e 9e bd 95 d6 a3 3d 6a 1e 8a 3d
       -0.12575454 -0.077236466 0.07999913 0.06744082
0000a0 ab b2 0b be 2f ca 93 3d 96 0d 20 be 6b 46 a0 3d
       -0.13642375 0.07216298 -0.15630183 0.07825931
0000b0 4b 07 b1 bd 71 43 13 be 27 00 46 3b 0f 9a 99 bc
       -0.08643969 -0.14381196 0.0030212493 -0.018750219
0000c0 65 69 dc bc 90 2f b0 bd 77 7d 11 3e b9 e3 a4 3d
       -0.026905725 -0.08602822 0.14208017 0.08051247
0000d0 2b d4 92 3c af 2b a9 bb a9 24 48 bd 9c 71 06 3e
       0.017923435 -0.005162678 -0.048863087 0.13129276
0000e0 69 54 a9 3b 42 a0 d0 bd a0 4d 56 bc f3 6c 0c be
       0.005167533 -0.10186817 -0.013080031 -0.13713436
0000f0 67 9d 9b 3d 2b 41 1d bd 23 55 db 3d 2c 2f c4 3c
       0.075983815 -0.038392227 0.10709598 0.023948275
000100 53 6e 98 bc 9e b4 46 3d 15 8f ce 3b 37 b8 b1 3b
       -0.018607294 0.048512094 0.006303678 0.0054235714
000110 00 0d 20 be 59 f8 ac bd a0 13 8a 3c 9f b9 3f 3e
       -0.15629959 -0.08445806 0.016855061 0.18723153
000120 e5 f0 d0 bc d6 69 c8 3d b1 b7 ed bd 4b 45 e4 3d
       -0.025505492 0.097858116 -0.11607302 0.11146029
000130 dd 3c ca 3c 7a b1 bb 3d 20 f9 12 3d 20 c4 b0 3d
       0.024687225 0.0916471 0.035882115 0.08631158
000140 fe 90 aa 3d 17 c3 93 bd e2 7c d3 3d a6 8d 04 be
       0.08328436 -0.07214945 0.10326554 -0.1294466
000150 b5 d2 a8 bc 1b 5f 2a 3c b2 6f 0c 3d a6 29 23 3d
       -0.020608285 0.0103986515 0.03428621 0.03983464
000160 53 ab 0f 3e bb 42 3a 3d e7 cb 78 3d 27 90 45 3c
       0.14030199 0.045473795 0.06074133 0.012058294
000170 ea 63 f4 bd 5e 42 9c 3d ad 1e 8d bd c7 f8 06 be
       -0.119331196 0.07629846 -0.068906166 -0.13180839
000180 df dd 0d be de 23 2e 3e c2 1a 93 3d e3 ad 70 bd
       -0.13854168 0.1700587 0.07182838 -0.05875958
000190 a0 a0 c4 3d 95 96 b7 bd 87 7e 92 bc a1 b5 d9 bc
       0.09600949 -0.08964268 -0.017882599 -0.026575865
0001a0 e8 a4 a8 3d c4 db 91 3d 9d ca 97 3d 1d f6 9e bc
       0.08234578 0.07121995 0.07411692 -0.019404465
0001b0 7c 5a c3 3c 19 f8 ca 3d 50 0b 4c 3d f0 64 7b ba
       0.023846857 0.09910602 0.049815476 -0.0009589931
0001c0 1e 4b a8 3c e2 a6 cb 3c 30 7f 79 bd 93 ed 68 bd
       0.020543631 0.02485985 -0.06091231 -0.056867193
0001d0 d4 c9 af bd 02 b2 07 3e 6b fc 0f be 88 47 06 3e
       -0.085834175 0.13251498 -0.14061134 0.13113225
0001e0 59 3e 94 bd 8a ca 88 bd 4d 2e 57 3d fc 93 f4 3c
       -0.07238454 -0.06679256 0.05253439 0.02985572
0001f0 1e 04 04 3e 03 f7 f6 bd d9 d7 ea bd a8 c1 bd 3d
       0.12892196 -0.120588325 -0.11466951 0.092654526
000200 b8 4c ed bd a8 35 10 bc 4a c1 5a bd 2c a4 53 3d
       -0.115868986 -0.008801855 -0.05340699 0.05167024
000210 cd 77 04 be 7a 92 c1 3b 34 d2 95 3d d9 89 27 3d
       -0.12936325 0.005907354 0.07315484 0.040902946
000220 37 2b 1f bd 76 89 08 3e b4 d7 c2 bc 19 c3 fa bd
       -0.038859572 0.13333687 -0.023784496 -0.12244243
000230 63 64 fd bd 11 d9 60 3d e5 09 c7 3d 7f 00 b6 bd
       -0.12372663 0.05489451 0.09718684 -0.08886813
000240 55 53 eb 3d 9b 86 6b 3d 27 ce 98 3d 68 aa 0d bc
       0.11490504 0.057501417 0.074611954 -0.008646585
000250 81 f3 cc 3d 35 45 f5 3c 2b 4c e6 3d de c8 eb bc
       0.10007382 0.029940227 0.11244997 -0.028782304
000260 25 00 35 3d 2e ab a9 3a 41 7c fe 3d bb b1 08 3d
       0.04418959 0.0012944692 0.12426043 0.033372622
000270 19 a8 11 3e b0 fd 39 3e 72 6d 76 bc 5a 85 8f bd
       0.1422428 0.1816318 -0.015040742 -0.07007857
000280 6f d3 63 bc b1 b3 3a 3c fc 22 bb 3d 6c 94 e4 3a
       -0.01390539 0.011395381 0.09137532 0.0017439253
000290 c1 68 4f 3d 81 27 1b 3d 80 57 c4 3d 18 53 a7 bd
       0.05063701 0.03787947 0.09587002 -0.08170146
0002a0 fd 5d 21 be 23 65 97 bd ba 42 1b be d1 0f 55 3b
       -0.1575851 -0.07392337 -0.15162173 0.0032510648
0002b0 6e f1 12 3e a8 1e bb 3d 36 a7 0b be 55 49 7a bd
       0.1434991 0.091367066 -0.13638005 -0.06110509
0002c0 13 e9 e8 3d c7 f2 d5 3d a6 ad a7 bc 21 e7 0e 3d
       0.113725804 0.10446697 -0.020468544 0.03488839
0002d0 08 a7 07 3e ad 75 8d bd fe b5 9f bd ad ec 41 bd
       0.13247311 -0.069072105 -0.07798384 -0.047344852
0002e0 a7 2c 1c bd a0 5c e4 bd 45 42 0a bc b1 ba 41 bd
       -0.03812852 -0.11150479 -0.008438651 -0.047297183
0002f0 e9 5e 03 3e 5e 65 72 3c ea ea 0e be 63 bb c6 bd
       0.12829174 0.014794676 -0.139568 -0.0970371
000300 44 5e d8 bd 58 c3 0e 3d e3 fc 01 3e 1b 14 27 be
       -0.10564855 0.034854263 0.12694125 -0.16316263
000310 15 60 22 be f6 89 60 bb a7 d0 3a 3c fb f2 95 bc
       -0.15856965 -0.0034261919 0.011402286 -0.018304339
000320 b3 4e 0d 3e 35 0e a8 3c e4 47 1b be 37 55 28 3e
       0.13799553 0.020514587 -0.15164143 0.16438757
000330 6e 3e 3b 3d 2d 1c f6 3d f1 0c 14 3e 45 a3 1f 3d
       0.045713834 0.12017093 0.14458062 0.038974065
000340 6e b9 d8 bd 45 3d 58 3d 58 3a af 3c 67 1d ad bc
       -0.10582243 0.052792806 0.021390125 -0.021132184
000350 ee f6 e5 3c 2c 04 d2 3d 58 4d 0d 3d 9a de 21 bd
       0.028071847 0.10254702 0.03449759 -0.03951893
000360 14 ba 5d bd b0 47 07 be 06 f8 83 3c 02 2e 85 bd
       -0.054132536 -0.1321094 0.016109478 -0.06502916
000370 1d 47 be 3d da 4d 94 3d be 43 8d 3d 8d 5a e4 3d
       0.092909075 0.072414115 0.068976864 0.11150084
000380 22 76 92 bd 10 52 15 be 66 e1 b2 bc 6b 4f 0f bd
       -0.07151438 -0.14582086 -0.021835994 -0.03498785
000390 7a b5 da bd 78 12 7f bc d9 50 f2 bd 7f e7 0a bd
       -0.10679145 -0.015568368 -0.11831827 -0.033912178
0003a0 fb 0b 5c bd cd 3e 5e 3d 5f db df 3d a7 28 be 3d
       -0.053722363 0.05425911 0.109305136 0.092850976
0003b0 57 1b 16 3d 04 6a 6f bc 07 f0 89 3c bb 7d 9a bd
       0.036647167 -0.014612678 0.016838087 -0.075435124
0003c0 70 de 52 bd cb 90 99 3d 7e 99 81 bd c2 c4 be 3c
       -0.051481664 0.0749832 -0.063281044 0.02328718
0003d0 ec d1 0d 3e 4f bd d8 3d 54 8d bf 3c 96 7f 38 3e
       0.1384961 0.10582983 0.02338282 0.1801742
0003e0 d0 66 bb 3d 80 57 44 3d 68 63 b4 3d ee 29 1b be
       0.09150469 0.04793501 0.08808023 -0.15152714
0003f0 1d d2 e1 bc 60 a2 96 bd 29 6d ba bc a9 93 57 bd
       -0.02756601 -0.07355189 -0.02275713 -0.052631054

bias_ih_l0 f4 [150]
000000 3a 30 91 3d 21 a6 7e 3c 1e 08 e3 bd d5 95 7d bd
       0.070892766 0.015542538 -0.110855326 -0.06191047
000010 10 18 29 be 20 88 25 3d 87 da b0 3d e1 1b 66 3d
       -0.16513085 0.040413022 0.08635431 0.05617893
000020 7d 5a e2 3d 5c fd 79 3d 1f c2 45 bd 9e 78 73 3d
       0.110524155 0.061032638 -0.04828083 0.0594412
000030 aa 03 40 bd d7 f6 30 bd 58 f4 57 3d 94 e9 dd bd
       -0.046878494 -0.043204155 0.05272326 -0.10835567
000040 95 c5 0d 3d 39 6f 2c 3e 12 84 ba bd 27 44 5b bd
       0.034612257 0.16839303 -0.09107222 -0.053531792
000050 70 5b 88 3d 1f ca 11 3e 87 05 eb bd 50 7a eb 3d
       0.06658065 0.1423726 -0.11475664 0.11497939
000060 80 e9 eb bd 93 ac 77 bd c9 c8 45 bc 6b cb 43 bd
       -0.11519146 -0.060467314 -0.012071797 -0.047801416
000070 cb cf 28 3d 82 6d e1 bd a5 c6 02 be f6 f4 a6 3d
       0.04121379 -0.11007215 -0.1277109 0.08152191
000080 55 b5 f7 bc d0 75 b1 3b 9a 76 1f 3e 27 66 be bd
       -0.030237833 0.0054156557 0.15572587 -0.09296828
000090 a2 4d d9 3d 8d b7 ac bd fe f3 3e bd 80 f5 4f 3d
       0.106105104 -0.08433447 -0.046619408 0.050771236
0000a0 3b f2 db bd fe 27 ed 3c 9e e4 08 bd 64 92 36 3e
       -0.10739561 0.028949734 -0.03342115 0.17829281
0000b0 7d 07 d0 bc 22 61 f6 3c 5b 96 41 bd 32 1b 0c 3d
       -0.025394196 0.030075613 -0.04726253 0.034205623
0000c0 31 7d c0 bc 76 10 b1 3d 8e 7c 9c bd c7 e8 01 3d
       -0.023497196 0.08645718 -0.076409444 0.031716134
0000d0 c6 3e e6 bd a5 e7 56 bc 62 84 1c 3d 00 a9 f2 bd
       -0.11242442 -0.013116752 0.038212188 -0.118486404
0000e0 11 01 e1 bd c6 0a 2a bd 90 05 7e bd 09 ac f0 bd
       -0.109865315 -0.04151418 -0.062017024 -0.11751563
0000f0 d3 91 00 be 99 f6 97 3d 66 19 d6 3d 6f 77 0b be
       -0.12555628 0.07420082 0.10454063 -0.13619779
000100 e9 51 0c be e0 dd c2 bd cc 3f b9 bd d0 d6 6c 3c
       -0.13703121 -0.095149755 -0.090453714 0.014455512
000110 ce dc fa 3d 4b ec 3a be aa bb 37 bd 64 aa 37 3d
       0.122491464 -0.18254201 -0.044856705 0.04484023
000120 eb ff c5 bd 0e da f5 bd 7f 66 7b bd ae 4a 17 3d
       -0.09667953 -0.12004481 -0.061377045 0.036936454
000130 b0 d8 50 bd b6 a2 79 3d b4 45 4f bc 8c af da bd
       -0.0509879 0.06094619 -0.012650896 -0.10678014
000140 f3 63 40 3d c9 fe 1e bc 97 c9 b2 bd 07 b8 2e bc
       0.04697032 -0.0097043 -0.087298565 -0.010663993
000150 73 53 66 3d 83 4b 62 bd ca bb 33 3d 38 7a 80 3c
       0.056231927 -0.055247795 0.04388026 0.015683278
000160 8f 27 1a be 9a d4 2f bd ed 42 2e bd 08 a8 02 be
       -0.15054153 -0.042927362 -0.042544294 -0.12759411
000170 d7 86 b4 3d e1 97 3f bc 2b 80 a5 bd bd c1 0d 3d
       0.08814781 -0.011693926 -0.08081087 0.03460859
000180 c2 80 3e 3d b5 3d c3 bd 35 9f ef bd 2a 62 ed bd
       0.04650951 -0.09533254 -0.11700288 -0.11590989
000190 54 96 da 3c 5e 2a 59 3d f5 aa 13 bd 7e 47 12 3d
       0.02668301 0.05301892 -0.03605171 0.03571271
0001a0 da 19 ad bd 82 39 4f bd 38 0e 1e be 6a fc a4 3d
       -0.084521964 -0.050591953 -0.15435112 0.08055957
0001b0 d0 b2 76 3c f1 ae 86 bd 7a 83 6f bd 02 ae 17 be
       0.015057281 -0.06576336 -0.058474995 -0.14812472
0001c0 79 f7 ef bd c7 b5 80 bd bc f1 fd bc 12 44 28 3e
       -0.117171235 -0.06284671 -0.030999057 0.16432217
0001d0 31 99 34 be 92 d7 24 3d 32 14 a7 3d 6f 60 14 3c
       -0.17636563 0.040244646 0.08158149 0.009056195
0001e0 e1 f9 f3 3d c2 1a a1 bc aa 01 1a be 5b f1 fc 3d
       0.11912895 -0.01966608 -0.15039697 0.123507224
0001f0 17 eb fd 3d 24 fd e8 3d 06 47 a4 3d a0 4a 7b bc
       0.123983555 0.11376408 0.08021359 -0.015337616
000200 67 c0 c0 bc c3 b2 b3 3d c0 0e f3 3d 4b ce c9 3d
       -0.023529245 0.087743305 0.11868048 0.098538004
000210 34 01 b8 bc a0 4b d1 bc f4 33 b5 3c c9 a1 81 3d
       -0.022461511 -0.025548756 0.0221195 0.06329686
000220 ce b4 05 be 84 d0 04 bd 68 ae 13 bd d0 a7 ca bc
       -0.13057253 -0.03242542 -0.036055 -0.024738222
000230 08 42 ce 3d f8 8d 1c be 97 37 51 3c 88 93 de bd
       0.10071188 -0.15288532 0.012769601 -0.10867983
000240 18 7a 42 3d ed f8 03 3e cf 52 20 be 0c 7a c5 3c
       0.04747972 0.12887926 -0.15656589 0.024106048
000250 c0 2a 53 bd 09 e7 06 3d
       -0.05155444 0.032935176

bias_hh_l0 f4 [150]
000000 1c b8 8f 3d 4b b4 ef 3d 4c a6 ef bd 5f 82 8e 3d
       0.07017538 0.1170431 -0.117016405 0.0695846
000010 b0 a3 e7 3d 20 ad fd 3c e9 7e ac bb fe 6a ee 3d
       0.11310518 0.030966341 -0.0052641523 0.11641501
000020 cd 54 83 bc ec 2a 06 3e 77 71 9a bd 74 aa 8f bd
       -0.016031647 0.13102311 -0.07541173 -0.07014933
000030 60 7a 9e 3d 1b 5a 3f 3d 6f c4 74 3c 3e e5 00 be
       0.07738185 0.04671679 0.014939412 -0.12587449
000040 7f 36 de 3c be 58 43 3d 5f ea bd bd 19 46 42 3d
       0.027125595 0.047692053 -0.09273218 0.04743013
000050 17 be 02 be cb 66 3e 3c d3 0d 45 3d 20 0b f9 bc
       -0.12767826 0.011621187 0.048108887 -0.030400813
000060 12 18 86 3d 96 bf 64 3d 63 1b aa 3c a4 b4 28 3e
       0.0654756 0.055846773 0.020765012 0.16475159
000070 e6 ed 3f 3d 76 d8 0c be 19 b2 43 3c 04 c9 40 bd
       0.046857737 -0.13754448 0.011944317 -0.047066703
000080 dd 47 6e 3c e6 59 c3 bd 12 7c f9 3d b5 c2 fc bb
       0.014543501 -0.09538631 0.12181868 -0.0077136406
000090 26 92 b3 bc e8 50 0b 39 7b fd 55 3d 45 1e c7 3d
       -0.021920275 0.00013286213 0.05224369 0.0972257
0000a0 25 45 fb 3d 46 3c 42 3d e3 3b fa bd 93 7e 61 bd
       0.12269048 0.047420762 -0.12218454 -0.05505235
0000b0 2d 58 16 bc 98 f9 e5 bd 19 dd 0a bb 9c 0a 83 bc
       -0.009176296 -0.11229247 -0.0021188913 -0.01599627
0000c0 93 2f 10 3e 8b 33 d7 ba 1f 18 1a 3c 03 ab 9f 3d
       0.14080648 -0.0016418559 0.009405165 0.0779629
0000d0 d7 eb cf 3d 27 f1 b4 bd 7d 10 d8 bd 6c 69 03 bd
       0.10152405 -0.08835059 -0.1055002 -0.03208296
0000e0 17 96 ce 3d 67 0e ce bd f4 b2 0a be 01 47 06 3e
       0.10087221 -0.10061341 -0.13544828 0.13113023
0000f0 77 62 cd 3d 7b 8d c5 bd 53 35 94 bd 6f 44 eb bd
       0.10028546 -0.09646126 -0.07236733 -0.11487662
000100 26 cb d4 bd 28 13 0d 3e c2 29 0e be 1d b3 0e 3c
       -0.1039031 0.13776839 -0.13883117 0.008709696
000110 47 b5 81 bd 95 e0 41 be c1 93 a7 3c 3a fc c7 bd
       -0.06333404 -0.18933327 0.020456197 -0.09764905
000120 8a 98 d4 bb ee a3 e6 bd e9 93 7b bd d2 d6 a2 3d
       -0.0064879106 -0.11261736 -0.061420355 0.0795113
000130 93 31 55 bb 7b 4c b5 3d 39 a5 1f 3e 5f 52 fd bc
       -0.003253077 0.08852478 0.15590371 -0.030923067
000140 36 18 2c bc 85 3b 55 3d 86 bb 89 bd ef 22 dc 3c
       -0.010503819 0.052058715 -0.067252204 0.026872126
000150 df 18 08 be 4e eb 02 3d 94 28 a9 3c 81 5d 03 be
       -0.13290738 0.031962685 0.020649232 -0.12828638
000160 02 f0 53 bd 3f 0c 8f bd 9c 03 a9 bd aa e0 da 3c
       -0.05174256 -0.06984758 -0.082526416 0.026718456
000170 9d bb ca 3d a2 f8 7c 3d e4 73 cc bd ae af e0 3c
       0.09899066 0.061760552 -0.09983042 0.02742752
000180 22 f0 61 3c d3 16 96 bd ed 04 81 bd 13 d1 f7 bd
       0.013790162 -0.07328572 -0.06299768 -0.121004246
000190 c0 23 13 3c 0e f2 fc 3a a2 cc ea ba 5b ec 22 be
       0.008980691 0.0019298212 -0.0017913769 -0.15910475
0001a0 67 94 f9 3d 9e 27 34 bd d2 a7 08 be 0f c0 06 3d
       0.121865086 -0.043983094 -0.13345268 0.032898005
0001b0 52 e6 18 bd 05 40 5e 3d 2e 00 d6 bc 2e 51 57 bd
       -0.037329026 0.054260273 -0.026123133 -0.052567653
0001c0 39 1b fe bd 76 2b e2 3d 3f 0d 0b 3e a7 0b 6a bd
       -0.12407536 0.11043446 0.13579272 -0.05714002
0001d0 47 74 c3 bd 60 50 12 bd 9c d0 19 3e 1a 2c ee 3c
       -0.095436625 -0.035721183 0.15020984 0.029073764
0001e0 47 04 fb 3c bc c3 eb bd b0 91 da 3d f9 05 af 3d
       0.030641688 -0.11511943 0.10672319 0.08546061
0001f0 1f e7 92 bd e9 a1 27 bd 54 1d fa bd 56 dc d9 3d
       -0.07172989 -0.040925894 -0.12212625 0.10637729
000200 73 6d e8 3d bc f2 5e 3d 13 a1 df 3d bf f6 18 3e
       0.11349001 0.05443071 0.10919394 0.14937876
000210 ab 43 b1 3d ad e4 08 3e 29 bc 22 be 9c 82 08 3e
       0.08655485 0.13368483 -0.1589209 0.13331074
000220 17 00 a6 bd 9a 1b df bb 83 51 73 bd 46 a4 78 bd
       -0.08105486 -0.0068087103 -0.059403908 -0.06070354
000230 54 40 0a be 27 75 3b bd 95 82 0d be 6d 0d 83 bb
       -0.13501102 -0.045766022 -0.13819344 -0.003999403
000240 ab db 57 bd 82 34 15 3e 91 e9 b9 bc d6 5b b6 bd
       -0.052699726 0.14570811 -0.022694381 -0.08904235
000250 f0 47 a7 bc 9b ba c5 bd
       -0.020420045 -0.09654733

weight_ih_l0_reverse f4 [150, 88]
000000 e3 2f eb bd 15 eb 2b 3e 79 d1 17 3d b9 76 95 3c
       -0.11483743 0.16788895 0.037065003 0.018245088
000010 b9 f0 be bb 23 ec 5a 3c c1 91 ec 3d a5 5b 00 3e
       -0.005827036 0.013361963 0.11551238 0.1253496
000020 c3 e3 b2 3d d3 47 17 3c 8a ac b0 3d 74 6b 98 3c
       0.08734848 0.009233433 0.08626659 0.018605925
000030 2f df ba bc c8 43 07 3e bc 70 63 bd 6c 7d 3b bd
       -0.0228115 0.1320945 -0.055527434 -0.04577391
000040 35 d6 0b bd 33 de 39 3d 3f 1d 15 bd 11 75 72 3c
       -0.03413983 0.04537792 -0.036404844 0.014798419
000050 5e 8e 85 3d f2 6d 7b bc 49 f3 02 bd f9 68 ce 3d
       0.06521295 -0.015346037 -0.031970296 0.10078616
000060 f3 61 5e bd 83 5c 26 3d 4b 94 44 3e 11 a4 ab 3d
       -0.05429263 0.04061557 0.19197194 0.083809026
000070 26 52 62 3d 8a 9d 9f bd 1c d5 ff 3d d5 ab 95 bd
       0.055254124 -0.0779372 0.12491819 -0.07308165
000080 ed 95 5c bd 95 dd 18 be 62 f7 03 bd d8 f6 20 3e
       -0.053853918 -0.14928277 -0.032218345 0.15719163
000090 4d 2f 59 3c 2a b7 32 bd 83 28 bf 3d 20 8a 98 3d
       0.013255906 -0.04363171 0.09333899 0.0744822
0000a0 c5 51 ef bb 03 c1 e7 bd 81 86 ad 3d 94 98 42 bd
       -0.007303449 -0.11316111 0.0847292 -0.04750879
0000b0 0f 6c d2 3b 4b ae f0 3d 40 19 92 bd 1b 86 5f 3c
       0.006421573 0.11751994 -0.07133722 0.013642813
0000c0 46 97 42 be ea 6d e4 bd c0 cc 30 3d 66 3b 6b bd
       -0.19003019 -0.11153777 0.043164015 -0.057429694
0000d0 74 d6 93 bd 86 aa ef bc cf a8 07 3e 81 36 3b bc
       -0.07218638 -0.029256117 0.13247989 -0.011426569
0000e0 15 67 65 3d bf c7 48 bd 8c 74 81 bd 6d d0 b6 bc
       0.05600651 -0.049018618 -0.06321058 -0.022316182
0000f0 4f c6 61 bd f5 70 bb bd 22 9d d0 bc a8 0f a8 3d
       -0.055120762 -0.09152404 -0.025465552 0.08206111
000100 8a 90 18 3d 5a 3b 2e bd 0e aa 2a bd 98 be ae 3d
       0.03724722 -0.04253707 -0.041666083 0.085324466
000110 85 08 d8 bd 55 3a ba 3d 0b 32 d4 bd e6 9b 84 3d
       -0.105485 0.09093157 -0.103611074 0.06475048
000120 05 83 40 3c b1 57 0c be 2d fa c3 bd 9a 22 15 3d
       0.0117499875 -0.13705327 -0.095692016 0.03640995
000130 1c 69 80 3c f5 0b 99 3c 92 ab 9e bd 9d 9b 20 3e
       0.01567512 0.01868246 -0.07747568 0.15684362
000140 ff 6d 36 3e 94 92 5d 3d a6 f2 16 3d 15 4a 03 3c
       0.17815398 0.054094866 0.0368525 0.008013268
000150 1a 9d 48 bc 32 e3 54 bc e2 84 31 bd 32 9c 8b 3b
       -0.012244487 -0.012993621 -0.043339618 0.0042605633
000160 f4 8e 2c bc 5b d5 cd 3d 8c 36 9b bd 4c 3d 0a 3c
       -0.01053213 0.1005046 -0.07578763 0.008437466
000170 f2 5e 14 3d 0e 04 18 3e 82 2f 90 bd a7 eb a5 bc
       0.03622336 0.14845297 -0.070403114 -0.02025397
000180 95 0e 0a 3c a7 bd 3f 3a 95 6b c5 bc 4b 24 5b 3d
       0.008426328 0.0007314332 -0.02409915 0.05350141
000190 43 bb c4 3d c7 ee 39 3e cb 97 54 bd 00 71 e0 3d
       0.0960603 0.18157493 -0.051902574 0.10959053
0001a0 0a 79 09 3e b0 8f d7 3d ab ee 2b 3e 4d 74 d0 bd
       0.13425079 0.10525453 0.16790263 -0.101784326
0001b0 c9 2b 82 bd 39 e9 5f bc c9 97 80 bd 22 2d c9 bd
       -0.063560076 -0.013666444 -0.06278951 -0.098230615
0001c0 92 d3 76 3d 36 7a 6c 3d 3e 08 99 3c 40 3c 70 3d
       0.060260363 0.057733737 0.018680688 0.05865121
0001d0 bb d7 cb bd c0 27 bd 3d 14 f7 fb bc 73 c1 34 3d
       -0.09953257 0.09236097 -0.030757464 0.0441298
0001e0 67 cf 8b 3d 89 05 be 3b 16 93 62 3d 10 78 94 bd
       0.06826668 0.0057989997 0.055316053 -0.072494626
0001f0 68 d9 c2 3b 5e e7 d6 3d 1d be 1c bd ef 06 51 bd
       0.005946327 0.104933485 -0.038267244 -0.051032003
000200 df 27 31 3d 74 a3 37 3d 4d a3 9f 3d 6b ee 94 3d
       0.043250915 0.044833615 0.07794819 0.07272037
000210 94 17 a2 3d ba 7f 88 bc dc eb c7 3c 7f 45 e6 3c
       0.079146534 -0.016662467 0.024404459 0.02810931
000220 29 d2 37 be a3 3f 83 3d 10 5e 31 be df 1f 0d 3e
       -0.17951263 0.06408622 -0.17321038 0.13781689
000230 bd 83 82 3d da b4 97 3d d8 27 ef 3d 5c 76 ba 3c
       0.06372783 0.074075416 0.116775215 0.022761516
000240 49 a0 27 bd 47 ec d7 3d 83 75 ec 3d 2f b0 ff bd
       -0.040924344 0.10543113 0.11545851 -0.12484776
000250 82 c4 3e bd 0e 4f 79 3d ad 1b 69 3d 6b 31 b0 3d
       -0.046574123 0.060866408 0.05691116 0.08603176
000260 b2 3e d5 bd 4c c1 89 3d 7f 04 f9 3d c0 7d 95 3d
       -0.10412349 0.067263216 0.12159061 0.072993755
000270 83 6a 4d bd 77 0f 40 3e 16 b5 dc bd d6 51 87 3d
       -0.050150406 0.187559 -0.10776727 0.06607406
000280 ac 21 77 3c 27 7d 1e 3e 60 10 c7 bd 0e 10 ef bc
       0.015083712 0.1547743 -0.0971992 -0.02918246
000290 3e e4 9c bd d7 76 29 3e 16 5a 44 3d 09 6f 23 3d
       -0.07660721 0.1654924 0.047937475 0.039900813
0002a0 39 b4 12 be 22 33 28 3d 10 9d c9 bc a5 76 05 bd
       -0.14326562 0.04106439 -0.024611026 -0.03258385
0002b0 15 9b 78 3d a2 38 9a 3d 6c 03 c4 bc 0b 15 b8 3d
       0.060694773 0.07530333 -0.023927413 0.08988389
0002c0 65 78 4d bd 5a ae 47 3e b7 dc ef 3d d8 05 f9 3b
       -0.050163645 0.19500104 0.1171202 0.0075995736
0002d0 7a fa 22 bb b6 fc b9 3c 8d b7 99 bd 28 6e 76 bd
       -0.0024868534 0.02270351 -0.07505713 -0.060163647
0002e0 1a 22 7a bc 8e ef a4 bc 02 fc 99 3c 17 29 b6 bd
       -0.0152669195 -0.02013376 0.018796925 -0.08894556
0002f0 13 8a 82 3d ad 88 24 3d 9b 6f 89 bc d3 2d 0f 3d
       0.06373992 0.040169407 -0.01677685 0.03495581
000300 8a a1 66 bd 24 54 b5 3d 13 d8 ef bd 36 0d 55 3b
       -0.0563064 0.08853939 -0.11711135 0.0032509095
000310 d5 ca d4 bd 40 04 63 bb 55 6b 19 bd 04 48 5f 3d
       -0.1039025 -0.0034639984 -0.037455875 0.05451204
000320 d2 a0 13 3e 32 d3 fe 3c 17 8d ed bd e7 a1 8d bd
       0.14416817 0.031106565 -0.115991764 -0.06915646
000330 a1 07 22 be 4d cf c6 bd 6a c6 d2 bd 34 ac 05 3e
       -0.15823223 -0.09707508 -0.10291751 0.13053972
000340 d0 06 7e 3d 18 bd 7d 3c 47 b2 de 3c 98 ba 77 3d
       0.062018216 0.015486978 0.027184619 0.060480684
000350 54 c4 77 bd de cf 22 3d 6e 2d 72 bd f4 77 d0 bd
       -0.060489967 0.03974902 -0.059125356 -0.10179129
000360 d7 27 a4 3d 6a a0 5b bd 68 41 1a 3d b7 0e 1d be
       0.08015411 -0.05361978 0.037660033 -0.15337645
000370 e7 ee 88 bd 13 81 77 3d 3a 03 b3 3c b4 a1 ea 3d
       -0.06686192 0.06042583 0.021852124 0.11456624
000380 fd 49 b8 bd c6 3e 3c be 2d ed f5 bd 0f 3b a6 3c
       -0.08998487 -0.18383321 -0.12008128 0.020291833
000390 cb de 06 bd 47 ca 8d 3c d4 99 12 be 3c 41 e5 3c
       -0.032927316 0.017308367 -0.14316493 0.027985208
0003a0 32 74 74 bd 21 00 d8 3d 86 b0 d5 3d 59 5c 62 bb
       -0.059681125 0.105468996 0.1043406 -0.0034539907
0003b0 cd 9a d7 3c 0f 3d 0e be 9a da 0e 3d 31 ee 2b be
       0.026318932 -0.1389048 0.034876443 -0.16790082
0003c0 f7 0f 2c bd ed d6 d5 bc 55 dc f2 bd 4f 4d a5 3c
       -0.042007413 -0.026103461 -0.11858431 0.020178465
0003d0 24 15 dc bc 72 77 03 bd 72 2b 20 bd 73 88 b6 3d
       -0.02686555 -0.032096334 -0.039103933 0.089127444
0003e0 06 08 eb bd a2 a7 35 3d 2d c8 35 3b 8a 2c 37 3d
       -0.1147614 0.04434932 0.0027737722 0.04472021
0003f0 c2 90 37 be 85 34 30 3d 42 cd 0a be 2b d4 a3 3d
       -0.17926314 0.043018837 -0.13554862 0.07999452

weight_hh_l0_reverse f4 [150, 50]
000000 8f 39 92 3d 4f 33 48 bd 7b 38 e7 bd 58 e7 ea bd
       0.07139885 -0.048877057 -0.1129007 -0.114699066
000010 af 81 0f 3e fe d2 63 3d b0 b4 13 3d 7c 0b 85 bd
       0.14014314 0.05562114 0.03606099 -0.06496331
000020 b7 43 a0 3d 3f 57 3e be fe e5 93 3c 4f 72 2e be
       0.078254156 -0.18587969 0.018054005 -0.17035793
000030 83 ab 82 bd 9c a1 16 3e 1c 38 e6 bd 53 58 19 3c
       -0.063803695 0.14710087 -0.11241171 0.009359437
000040 8c 6b 08 be ff c3 73 3d 8f ff 90 ba ef fe 30 3d
       -0.13322276 0.05951309 -0.001106249 0.043211874
000050 fa 94 15 be af ee 15 be b2 8d 98 3d 98 f5 05 3e
       -0.14607611 -0.14641832 0.07448901 0.13081968
000060 f3 b4 e7 3d 81 75 4c 3e c0 cf 1d be ce 0d 2f be
       0.1131381 0.19966699 -0.15411282 -0.1709511
000070 bd 60 7f bc fd e1 ff bd ac 1a 8f bc 59 37 96 3d
       -0.015587029 -0.12494276 -0.017468773 0.073347755
000080 f5 6e de bc 36 c7 fe bd 7a 47 da 3c 20 b8 a0 3c
       -0.027152518 -0.1244034 0.02664541 0.019619048
000090 59 f2 0c be ab 66 4d 3d 65 4e 07 3d 47 95 06 be
       -0.13764323 0.05014674 0.033033747 -0.13142882
0000a0 56 f9 5b 3e e9 d2 f7 3d 24 54 8c bc 90 3c 0f 3c
       0.21481833 0.12100775 -0.017129965 0.008742467
0000b0 31 e1 1b 3e ca e6 32 be 2b db 37 3e 40 20 8a bd
       0.15222622 -0.17470852 0.179547 -0.067444324
0000c0 fd 11 20 3d 63 cb 4b be ad 37 38 3c d6 2f b0 bd
       0.039079655 -0.19901805 0.011243743 -0.08602874
0000d0 06 89 61 3c ea aa 44 3d 9e 3e ae bd 4f 0e bd 3c
       0.013765579 0.04801456 -0.08508037 0.023078112
0000e0 cf 54 01 bd f5 c0 d5 3d 3a 1c d7 3d e4 6c 92 bd
       -0.03157502 0.10437194 0.10503431 -0.071496755
0000f0 ff 32 3d 3d 84 13 09 3d ab 7f b4 3c f9 c0 a5 bd
       0.04619121 0.033465877 0.022033533 -0.08093447
000100 68 46 66 bd e1 01 f6 bc b0 f3 5c bd 41 cd 36 3e
       -0.05621949 -0.030030193 -0.053943336 0.17851736
000110 ae 09 e5 bd 10 e1 2f 3c 7f e5 4a 3b fb 56 b8 bd
       -0.11183487 0.010734811 0.0030959544 -0.09000965
000120 9c af ef 3d 9a 86 c6 bd 4c a7 8f bd 67 85 04 3c
       0.11703417 -0.09693642 -0.07014331 0.008088446
000130 95 ed bd bb dc 77 58 3c 49 7f d7 bd 30 34 c0 bd
       -0.0057961443 0.01321217 -0.105223246 -0.09384954
000140 e9 99 a5 3c 58 7f eb 3d 6d 5d c0 bd e8 12 9d 3d
       0.020214992 0.11498898 -0.093928196 0.07669622
000150 b7 58 5a 3b 57 1d d3 bc 65 8c f1 bd 89 61 29 3d
       0.0033317038 -0.025770826 -0.11794356 0.041352782
000160 40 bb b0 3d 4e af cb 3d 6b 7a 25 3e b8 1d cf bd
       0.08629465 0.09945546 0.1615998 -0.1011309
000170 8e 02 ae 3c 25 c0 c0 bc 25 52 ae bd b3 a8 f3 bd
       0.021241453 -0.023529122 -0.085117616 -0.11897411
000180 f8 27 88 bc 96 39 b8 3c 4d 7a ae bd a3 4f 55 bd
       -0.016620621 0.022488397 -0.08519421 -0.0520779
000190 6a 31 a0 bc 05 24 3d bd b7 5e 37 be e5 10 1c be
       -0.019554812 -0.04617693 -0.17907225 -0.1524082
0001a0 b8 fe ca bd 26 05 1e 3e 66 e5 d5 3c a2 6a d0 3c
       -0.09911865 0.15431651 0.026110362 0.025441471
0001b0 c7 7e 14 be 60 1f 25 3d ce e0 b9 3d 34 43 22 be
       -0.14501487 0.040313125 0.09076081 -0.15845948
0001c0 2e 51 41 3e 14 02 0e 3c 38 2a 8a 3c c5 f0 5f bd
       0.18878624 0.008667488 0.016865835 -0.054672975
0001d0 89 f5 4b be a7 62 b6 3d 5d 0e 00 3e 50 f5 8e 3c
       -0.19917883 0.08905535 0.12505479 0.017450958
0001e0 dc 6a 1e be ee 77 8a bc d7 80 15 3e f1 55 57 3e
       -0.15470451 -0.01690289 0.1459993 0.21028878
0001f0 bd 7f 87 3b a3 3b 90 3d 31 5f 28 be a4 28 2d be
       0.0041351006 0.07042625 -0.16442563 -0.16910034
000200 d9 09 ad bd f7 6a a0 3c 39 c6 13 be 95 87 1f 3d
       -0.08449144 0.019582255 -0.14431085 0.03894766
000210 74 7f 36 bb c8 95 00 bc f4 a6 1c be 51 04 1e 3e
       -0.0027846964 -0.007848211 -0.15298063 0.15431334
000220 e8 48 cb 3d f4 60 50 3e ef b8 dd 3d 01 b3 c8 bc
       0.09926015 0.20349485 0.10826289 -0.024499418
000230 a4 b9 a3 3b ee 2a d2 bd e2 7b a6 3c 06 c5 02 b9
       0.0049964953 -0.102620944 0.020322744 -0.00012471163
000240 a7 fc 0f 3e 91 23 55 bd 7e e3 a5 bd 2b e9 c4 3d
       0.14061223 -0.052035872 -0.08100031 0.09614786
000250 e9 6c 10 3e 87 f1 60 be 28 b1 9b 3d 59 de 43 bd
       0.14104046 -0.21967135 0.07602149 -0.04781947
000260 7b f4 d1 3d ce 09 dd bd 53 b0 03 3e 4d 8a 14 be
       0.10251709 -0.10792886 0.12860231 -0.14505883
000270 bc b3 02 be 24 e4 d1 bd 31 3a 95 3d b7 53 c1 3b
       -0.12763876 -0.102485925 0.0728649 0.005899872
000280 41 48 9a bd 12 e4 e5 3c e8 bf e8 bc 56 89 2b 3d
       -0.075333126 0.028062854 -0.02841182 0.04187902
000290 78 38 b7 3d c1 18 ee bd 0c ef 94 3d ca ae 57 3c
       0.089463174 -0.11625815 0.07272157 0.013164232
0002a0 b8 60 25 3c bd 20 d3 bd 5c 36 bc bd 1a 07 56 3d
       0.01009386 -0.10308979 -0.09190056 0.052252866
0002b0 3f 94 44 3d c2 aa 53 bd 2f 0f cf bd f8 46 9a 3d
       0.04799294 -0.05167652 -0.10110318 0.075330675
0002c0 d8 d3 96 bd fc a8 5c 3d fa 49 17 3d 94 ba e4 bc
       -0.07364625 0.053872094 0.036935784 -0.027920999
0002d0 f2 0f 30 3e 05 d3 2d be ee 1a 2f bd a1 35 d9 3d
       0.17193583 -0.16975029 -0.04275029 0.10605932
0002e0 69 56 ab bd 68 64 b8 bb 70 70 e1 bd 97 b7 e0 3d
       -0.08366091 -0.0056272037 -0.11007774 0.10972517
0002f0 f6 25 90 3c e5 57 1e bd 13 38 b9 bd 68 54 3f 3d
       0.017596226 -0.03865804 -0.090438984 0.046711355
000300 ab b6 03 3e b8 2a 8d 3d e0 a7 c6 bc ab 10 1a 3e
       0.12862651 0.068929136 -0.02424997 0.15045421
000310 27 2a 92 bd c0 24 5a 3d b2 62 f0 bd 83 54 82 3d
       -0.07136946 0.053257704 -0.11737575 0.063637756
000320 38 65 39 be 56 cb 6c bd 58 77 ad 3c 66 12 58 3c
       -0.18105018 -0.057811104 0.021175072 0.01318798
000330 c5 c8 27 3d 8a 5d 83 bc 3c 79 e8 3c b9 28 ac 3d
       0.040962953 -0.016035814 0.028378122 0.08406205
000340 f8 2a cf bd 42 ad d3 bd 6c e3 57 3d 4f 6c d0 3d
       -0.101156175 -0.10335781 0.05270712 0.10176908
000350 1d bf af 3d 9f 70 0c 3e 63 ec af 3d ff 0f 25 bd
       0.08581374 0.13714837 0.08590009 -0.04029846
000360 09 d7 7b 3d d0 48 d6 3d 8c a5 81 bd a1 92 05 be
       0.06148437 0.10463107 -0.06330404 -0.13044216
000370 ea 76 a4 3d 7c eb 9c 3c ef e5 fe 3d 00 01 1e 3c
       0.080304936 0.019155256 0.124462 0.009643793
000380 2b b0 6c bd 91 32 d0 3d c0 f3 31 3d f4 f2 19 be
       -0.057785194 0.10165895 0.04344535 -0.15034086
000390 35 7c 1f be 28 05 9f bd 73 4c fe bd 10 bc 7f 3d
       -0.15574725 -0.07764655 -0.12416925 0.06243521
0003a0 3f ed e0 bd c6 70 d7 3d 56 f3 88 3d b5 85 e1 3d
       -0.10982751 0.10519557 0.06687038 0.11011831
0003b0 02 ab ef bd a9 c7 22 3e c6 20 a1 3d 74 e4 13 3d
       -0.11702539 0.15896477 0.07867579 0.03610654
0003c0 49 9f 25 3e ed 72 78 3d cc 9c 18 3e 8a 3d 13 3e
       0.16174044 0.060656477 0.14903563 0.14378944
0003d0 07 c0 52 bd 03 9a 14 bd 78 48 41 3d e2 9b 0e be
       -0.051452663 -0.03627969 0.047188252 -0.13926652
0003e0 9a 58 03 3e 7e 98 14 3d 4c f8 f2 3d 98 f3 dd bd
       0.12826768 0.03627824 0.11863765 -0.108374774
0003f0 f4 dc bf 3c 58 f7 7a bd 20 b2 99 bd 2c c4 f2 3d
       0.023420788 -0.06127104 -0.07504678 0.11853823

bias_ih_l0_reverse f4 [150]
000000 4b 41 12 3e b3 ca 10 3e aa 0b 92 3d b8 71 e0 3d
       0.1428272 0.14139824 0.07131131 0.1095919
000010 a4 a0 85 bc 43 7a 34 3d 9d 69 e1 3d a3 3d ab bd
       -0.016311951 0.04406191 0.11006472 -0.08361366
000020 9e 52 d7 3d 02 60 56 3c 48 26 12 be 1a 14 70 bd
       0.10513805 0.0130844135 -0.14272416 -0.05861292
000030 70 12 69 bc da 9b b9 bd 92 b0 f3 3d e5 78 1e 3d
       -0.014225587 -0.090629295 0.118989125 0.038689513
000040 52 d7 f2 3d 50 37 a3 3b d9 e5 21 3c 48 a3 11 bd
       0.11857475 0.004980959 0.00988146 -0.035556108
000050 65 3d 24 bd 43 7a 84 bc 43 f7 fe 3c 64 1c df bc
       -0.040097613 -0.01617158 0.031123763 -0.027235217
000060 fa 48 ba 3d cc 02 6d 3d e0 b3 ac bd 31 d8 9a bd
       0.090959504 0.057863995 -0.08432746 -0.075607665
000070 d1 f6 d1 bd 50 e9 69 3d 0a 37 a5 3d 29 d7 14 3b
       -0.102521546 0.05710727 0.080671385 0.0022711253
000080 c9 30 e7 bd ac 2e d2 bd 07 53 60 bd d4 96 be bc
       -0.11288602 -0.10262808 -0.05476668 -0.02326528
000090 73 9d 18 3e e7 95 8f bd a5 4c 26 bd c1 06 4f 3c
       0.14903812 -0.070110135 -0.040600438 0.012635888
0000a0 38 5d 3c bd 15 df 36 bd 43 d2 44 bd 29 92 a2 3d
       -0.045987338 -0.04464634 -0.048052084 0.07938034
0000b0 85 5f dd 3b 55 4f d5 bd ee d8 d0 bc 3f 03 ec 3d
       0.0067557716 -0.10415522 -0.025494065 0.11524057
0000c0 ef 00 f8 bd c0 7c 99 bd 92 68 f1 3b 2f 5e d6 3d
       -0.12109553 -0.07494497 0.007367202 0.10467183
0000d0 60 23 b8 38 df dd 0f 3e b3 eb 30 be 8f ee 0a 3d
       8.780393e-05 0.14049481 -0.17277412 0.033918913
0000e0 16 30 f6 bd ae a7 9f bd 2b b0 a7 bd f4 4e 8f 3d
       -0.120208904 -0.07795654 -0.08187898 0.06997481
0000f0 c4 31 01 3d 3c ea 96 3d b5 4e 71 3d fb 9e 23 be
       0.0315416 0.073688954 0.05891295 -0.15978615
000100 ea 2c 60 bd 09 b5 0d bd ed 60 f9 bc d8 bc 5f 3c
       -0.054730333 -0.034596477 -0.030441726 0.013655864
000110 4e 79 4c be f3 ac 1b 3d 90 61 db 3d 65 61 35 3d
       -0.19968149 0.038006734 0.10711968 0.044282336
000120 59 ce 82 bc 1a 26 b5 bd d7 01 24 3d 14 26 18 be
       -0.015967535 -0.08845158 0.040040817 -0.14858276
000130 40 60 0f bd 14 16 c3 3d 49 fd e6 bd e6 81 6c 3d
       -0.0350039 0.095256954 -0.11278779 0.05774107
000140 30 46 c3 bd d4 d1 05 3d 47 4f 14 3c 69 57 82 bd
       -0.095348716 0.03267081 0.009052104 -0.063643284
000150 3e b8 04 bb ff f7 cc 3d e5 0e 28 bd b6 de fb bd
       -0.0020251418 0.10008239 -0.04102983 -0.12298338
000160 98 3d f6 bd 53 7c e3 bd 29 8c 9a bd a1 03 82 3d
       -0.12023467 -0.11107697 -0.07546265 0.063483484
000170 f8 a4 97 3d b9 f2 1b 3c 1c fe 95 bc e4 18 b2 bd
       0.07404512 0.009518319 -0.018309645 -0.08696154
000180 79 77 8f bd 3e 77 ad bd 41 87 87 3d c5 e2 09 3d
       -0.070052095 -0.08470009 0.066175945 0.03366353
000190 e8 6c c9 bd e2 c5 ce 3c e7 71 c5 bd 10 c3 dd 3d
       -0.09835225 0.025240842 -0.09640866 0.10828221
0001a0 61 ad 32 3d 11 a1 03 3e c5 71 a5 bd ca da 03 be
       0.04362238 0.1285441 -0.080783404 -0.1287643
0001b0 72 82 d1 3b a2 81 07 3c 07 e1 8e 3d d6 ee 85 bd
       0.006393724 0.008270653 0.06976514 -0.06539695
0001c0 a8 54 2e bc b7 a3 5b bc 37 dc e3 3d ee fb f9 bd
       -0.010640301 -0.013405732 0.11125987 -0.12206255
0001d0 3f ea 12 3e 7e d4 a2 3d ac f0 8e bd 95 a3 51 3d
       0.1434717 0.07950686 -0.06979498 0.051181395
0001e0 c2 29 aa bd 1e 18 f4 39 12 7d ef bd 3d 8b d2 bc
       -0.08308746 0.00046557275 -0.11693777 -0.02570116
0001f0 c9 10 e8 3b 53 47 73 3d c8 37 16 3e 1d 43 9d 3d
       0.007082079 0.059394192 0.14669716 0.076788165
000200 d3 11 f0 3d 01 ea 13 3e 91 a7 0c be d8 e1 bf bd
       0.1172215 0.14444734 -0.13735797 -0.09369248
000210 69 7b 9a 3d b2 2b f2 bc 5f 52 80 3d b6 53 76 3d
       0.0754307 -0.029561851 0.06265711 0.060138427
000220 3d 75 2f bd 1d 30 5a bd 77 56 38 bc c8 1d 79 bd
       -0.042836417 -0.05326854 -0.011251084 -0.060819417
000230 12 2e b6 bb 4d ec c2 bb e7 1b d3 bd 25 a1 24 bd
       -0.005559691 -0.0059485794 -0.10308056 -0.040192742
000240 06 10 52 bd 12 85 7f 3c fd 80 c3 bd 87 6d da bd
       -0.051284812 0.015595691 -0.09546087 -0.10665422
000250 13 59 9a 3d 17 a8 f8 bb
       0.07536521 -0.0075883972
