models/bezrelu_lstm_4_hidden_40_onecycle_1e-2-1e-8_rmsprop1e-3_700epoch_loss_2.683788537979126.pt (torch_old, 561755 bytes, 35 tensors)

weight f4 [88, 88]
0	0x3f795fc7	0.9741177
1	0x3ed506b8	0.41606688
2	0x3f5daa9d	0.8658846
3	0x3f37fdcd	0.71871644
4	0x3ee8b904	0.45453656
5	0x3fc7978f	1.5593127
6	0x3f04ba4c	0.51846766
7	0x3ed5f654	0.41789496
8	0x3f2b4130	0.66896343
9	0x3f10f90c	0.56630015
10	0x3d7f4ebd	0.06233095
11	0xbf71b6dc	-0.94419646
12	0xbeb37293	-0.3504835
13	0x3fc2fd78	1.5233603
14	0x40021119	2.0322936
15	0xbed85c94	-0.42258132
16	0x3ec0fada	0.37691385
17	0xbf3edd36	-0.7455629
18	0xbef9bc6b	-0.48776564
19	0x3f452658	0.7701163
20	0xbf188a3e	-0.5958594
21	0xbd43afac	-0.047774956
22	0xbd8ce2e7	-0.06879216
23	0x3f0037ad	0.50084955
24	0x3f2d057b	0.6758649
25	0x3f851530	1.0397091
26	0x400aa07a	2.1660447
27	0xbf4dcdeb	-0.8039233
28	0xbea84c61	-0.32870772
29	0xbf3865d2	-0.72030365
30	0xbe6c9edf	-0.2310748
31	0xbfa45502	-1.2838442
32	0xbe37f3f0	-0.17964149
33	0xbea493a3	-0.32143888
34	0x3fdfd7b9	1.7487708
35	0x3ee47519	0.44620588
36	0xbf2bf842	-0.67175686
37	0xbeb4bcba	-0.35300237
38	0xbf56902b	-0.8381373
39	0xbf601e2c	-0.8754604
40	0x3f75ff24	0.9609244
41	0xbff4d226	-1.9126632
42	0xbe0b58f5	-0.13608153
43	0x4054db84	3.3258982
44	0x3f4d6a30	0.80240154
45	0xbfccaca4	-1.5990186
46	0x3e98b14a	0.2982276
47	0xbfa67114	-1.3003259
48	0xbf8557c4	-1.0417409
49	0xbef596dd	-0.47966662
50	0x402af08b	2.6709316
51	0x3fa82a39	1.3137885
52	0xbfd058fc	-1.6277156
53	0xbf36b489	-0.71369225
54	0x4003b707	2.058046
55	0xbdd1b144	-0.10238889
56	0x3fa56aa9	1.2923175
57	0x3f3097a1	0.6898137
58	0x3e8937c9	0.26800373
59	0x3f9c8279	1.2227317
60	0xbf9407d3	-1.1564888
61	0x3f05bb8f	0.52239317
62	0x3f10898a	0.5645987
63	0xbf3bbc36	-0.7333406
64	0xbe9fcbc1	-0.3121014
65	0xbe9a69df	-0.30158898
66	0x3f240f9f	0.64086336
67	0x3f5b9450	0.8577318
68	0xbdaa996d	-0.08330045
69	0x3e2acecc	0.16680449
70	0xbfc69aec	-1.5516028
71	0xbe6afa43	-0.2294703
72	0x3fc44c90	1.5335865
73	0x3eeed998	0.46650386
74	0xbf32d3a8	-0.6985421
75	0x3e0a408a	0.13501182
76	0x3f64a591	0.89315134
77	0x3f83f3e1	1.0308801
78	0xbf454b0a	-0.77067626
79	0xbcd37a95	-0.025815288
80	0x3f0ae5a2	0.5425664
81	0x3f22839d	0.63482076
82	0x3f74b121	0.9558278
83	0xc06179b3	-3.523053
84	0x3e58556a	0.21126333
85	0xbfca06c4	-1.5783315
86	0xbf9dd889	-1.2331706
87	0xbe860656	-0.2617671
88	0xbd5dc526	-0.054143094
89	0xbf7e26ae	-0.9927777
90	0xbf23a86d	-0.6392887
91	0xbf180227	-0.59378284
92	0xbfc8d43e	-1.5689771
93	0xbec8e77e	-0.39239115
94	0x3f811e14	1.0087304
95	0x3ea98ed3	0.3311678
96	0x3e89a893	0.26886424
97	0xbf999b5b	-1.2000536
98	0xbce9a297	-0.028519912
99	0x40034099	2.0508177
100	0xbf8d74d4	-1.1051278
101	0xbeef4fce	-0.46740574
102	0xbf448d3a	-0.76777995
103	0xbfcabe61	-1.5839349
104	0xbf81182e	-1.0085504
105	0x3f496f4f	0.7868547
106	0x3fffb463	1.9976925
107	0x3efbab68	0.4915421
108	0xbdf8fe6e	-0.121579036
109	0xbebf680a	-0.37384063
110	0xbfdba6cc	-1.7160277
111	0xbf31b5f4	-0.69418263
112	0xbf50460b	-0.8135688
113	0x3eda07b4	0.42584002
114	0x3dc02190	0.093814015
115	0x3e4faa90	0.20279908
116	0xbc9bfea1	-0.019042315
117	0xc0013909	-2.0191061
118	0x3f9c5e98	1.2216368
119	0x3eb37e43	0.35057268
120	0x3f1bcf5d	0.60863286
121	0x3e942ece	0.2894196
122	0x3da4f664	0.08054808
123	0x3f591d37	0.84810203
124	0x3e0752d1	0.13215186
125	0xbd51af47	-0.051192548
126	0x3f0925df	0.5357341
127	0x3e643f57	0.22289787
128	0x3e8c5851	0.2741113
129	0xbfb15d0b	-1.385652
130	0x3fd073e9	1.6285373
131	0xbf0716d0	-0.52769184
132	0xbe3be6e8	-0.18349802
133	0x3fbaaf8f	1.4584826
134	0xbf684898	-0.9073577
135	0xbf63c827	-0.88977283
136	0xbed88222	-0.42286783
137	0x3f8e34f9	1.1109916
138	0xbfa70965	-1.3049742
139	0x3eaa7def	0.33299205
140	0xbedd6933	-0.43244323
141	0x400d5d1e	2.2088084
142	0xbd906704	-0.07050899
143	0x3e6670b7	0.22503935
144	0x3c01e8ae	0.00792901
145	0x3fed92ad	1.8560387
146	0xbe913144	-0.283579
147	0x3fa6566a	1.2995121
148	0xbf22240e	-0.63336265
149	0xbf805764	-1.002667
150	0x3fbfa218	1.4971342
151	0x3f5d98ba	0.8656117
152	0x3ee5dfa8	0.448972
153	0xc0261ef8	-2.5956402
154	0x40156085	2.334016
155	0x3f5d8e96	0.86545694
156	0x3f39ff80	0.7265549
157	0x3e958542	0.2920323
158	0xbf3eda9f	-0.7455234
159	0xbf96666a	-1.1750004
160	0x3b9d871f	0.0048073675
161	0xbf38ce7c	-0.7219007
162	0xbe67255e	-0.22572848
163	0x3ede99ba	0.4347666
164	0xbf2fdc6d	-0.6869572
165	0xbf4a4029	-0.7900415
166	0xbfaa1292	-1.3286917
167	0x3fd8229e	1.6885564
168	0xbe4f4b5a	-0.20243588
169	0x3d83c3e5	0.06433848
170	0xbf054dea	-0.5207201
171	0xbf6751a9	-0.9035898
172	0xbf30a3c7	-0.68999904
173	0x3e307f32	0.17236021
174	0x3efe051e	0.4961328
175	0xbdd95464	-0.10611799
176	0xbf0b38db	-0.5438363
177	0x3fb5a3da	1.4190629
178	0xc002db13	-2.0446212
179	0xbf3718ae	-0.71522033
180	0x3e4a574a	0.1975986
181	0x3f653c59	0.8954521
182	0xbf8b0120	-1.0859718
183	0xbebf9b38	-0.3742311
184	0xbd396d36	-0.045270167
185	0x3fe61239	1.7974311
186	0x400a7af2	2.163754
187	0x3f9299a3	1.1453136
188	0xbf26310d	-0.64918596
189	0x3fc85a9a	1.5652649
190	0xbf02355f	-0.5086269
191	0x3ee69671	0.45036653
192	0xc02e8858	-2.7270718
193	0x3f3bfd60	0.73433495
194	0x3fa16e18	1.2611723
195	0x3f49b124	0.7878592
196	0x3cb47237	0.022027118
197	0xbf9d02a0	-1.2266426
198	0x3fa8e78c	1.3195662
199	0x3eb09ed6	0.34496182
200	0xbd94bf91	-0.07263101
201	0xbdffeaa6	-0.124959275
202	0xbfad18f6	-1.3523242
203	0x3e30999a	0.17246094
204	0xbf81633b	-1.0108408
205	0x3f5a8b70	0.85369015
206	0xbf4df95d	-0.80458623
207	0xbe269c8b	-0.16270654
208	0x3dc26ef7	0.09493821
209	0x3fde45aa	1.736501
210	0x3fcc500d	1.596193
211	0xbf96d28c	-1.1783004
212	0xbc79752b	-0.015225689
213	0xbcafe820	-0.02147299
214	0x3f897bd4	1.0740914
215	0xbde8c832	-0.11366309
216	0xbfd7de5a	-1.6864731
217	0xc026b2a1	-2.6046526
218	0xbf1de16f	-0.6167211
219	0xbead4c3f	-0.33847234
220	0xbf898192	-1.0742667
221	0x3f3bba24	0.73330903
222	0xbf0b7893	-0.54480857
223	0xbf77365b	-0.96567315
224	0xbf0556b1	-0.52085406
225	0xbfe283a5	-1.7696425
226	0x3f2675df	0.65023607
227	0xbf37f25d	-0.7185419
228	0x3f0f9389	0.56084496
229	0x3e403cd2	0.18773201
230	0x3f1a52a2	0.6028234
231	0xbe85dec4	-0.2614652
232	0xbf038b43	-0.5138437
233	0x3e1baf70	0.15203643
234	0xbed522c0	-0.41628075
235	0x3fbced04	1.4759831
236	0x3ef16a86	0.47151583
237	0x3d5b528a	0.053545512
238	0x3febc468	1.8419313
239	0x3edbdc91	0.42941716
240	0x3eea8ec3	0.45812044
241	0x3ec4c002	0.3842774
242	0x3facb583	1.3492893
243	0x3f9ad6bf	1.2096785
244	0xbfc926b5	-1.5714937
245	0xbcf7722f	-0.030205814
246	0x3f4917e7	0.785521
247	0x3dd8638f	0.10565864
248	0xbfc2d481	-1.5221101
249	0xbf2051f3	-0.62625045
250	0x3deb9c70	0.115044475
251	0x3ffd177d	1.9772793
252	0xbd1166b3	-0.035498332
253	0xbfbadc84	-1.4598546
254	0x3f6283b7	0.8848223
255	0x3f2bbe85	0.67087585

weight_ih_l0 f4 [120, 88]
0	0x3e065983	0.13120084
1	0x3d718c16	0.058971487
2	0xbda9089e	-0.08253597
3	0xbdcd47fb	-0.10023495
4	0xbe0ae46b	-0.13563697
5	0x3c8a5174	0.016884543
6	0xbdcac110	-0.09900105
7	0xbe0bf92f	-0.13669275
8	0xbcbb6b8c	-0.02287843
9	0x3df30078	0.11865324
10	0x3ddfaeb8	0.10921997
11	0x3d9a7c00	0.075431824
12	0x3da69511	0.08133901
13	0x3de30059	0.11084051
14	0x3e0f1167	0.13971482
15	0x3ca0e4d7	0.01964037
16	0xbcaec1ec	-0.021332704
17	0x3c2f6e55	0.010707458
18	0xbe32ddd6	-0.17467436
19	0xbd57a659	-0.052648876
20	0xbe0dcf73	-0.13848667
21	0x3d503984	0.0508361
22	0xbd048e56	-0.032362305
23	0x3dbf6845	0.0934606
24	0x3d5ab139	0.05339167
25	0x3e23f45a	0.16011181
26	0x3e1001a2	0.14063123
27	0x3cb00002	0.021484379
28	0x3d376d88	0.04478219
29	0xbe40acbc	-0.18815893
30	0x3d2ada35	0.041712005
31	0x3d686a43	0.056741964
32	0xbd565b55	-0.052333195
33	0x3dbb6c59	0.09151525
34	0xbcf48519	-0.029848622
35	0xbdf4fd5a	-0.119623855
36	0x3e199313	0.1499751
37	0xbca60b00	-0.020268917
38	0x3df3a2f6	0.11896317
39	0xbd9badd9	-0.07601518
40	0x3cc8a83d	0.024494285
41	0x3d82d70d	0.06388674
42	0x3d8e3e3d	0.06945465
43	0xbcfe54e8	-0.031046346
44	0xbd79f3b8	-0.061023444
45	0xbdd5e0c8	-0.10443264
46	0xbd19f276	-0.037584744
47	0xbd9d278e	-0.0767356
48	0x3cc37c79	0.023863064
49	0xbdecee64	-0.11568907
50	0x3b7e4612	0.003879909
51	0xbddeff31	-0.10888518
52	0x3d8de37f	0.06928157
53	0x3dfe5a3f	0.12419557
54	0xbe0c68e1	-0.13711883
55	0xbde30a1a	-0.11085911
56	0xbc36dc44	-0.011160914
57	0x3e028a48	0.12748063
58	0x3e069b88	0.13145268
59	0x3ba627ba	0.0050706537
60	0x3df2acd9	0.11849374
61	0xbe012b8d	-0.1261427
62	0x3e199c07	0.15000926
63	0xbd92dcdb	-0.07171031
64	0x3b0d4189	0.0021553955
65	0xbdde827a	-0.1086473
66	0x3e1ada3a	0.1512231
67	0xbe16564d	-0.14681359
68	0xbe267246	-0.1625453
69	0xbd9109ac	-0.07081923
70	0x3cc1d231	0.023659797
71	0x3e0658a0	0.13119745
72	0xbdd82024	-0.10553005
73	0xbdb5f685	-0.088849105
74	0xbddf5ec9	-0.10906751
75	0x3d51f90a	0.051262893
76	0x3e0372a5	0.12836702
77	0x3c99714f	0.018730788
78	0x3c639996	0.013891598
79	0x3cfcc3a6	0.030855011
80	0x3c1db303	0.009625199
81	0x3acbad1c	0.0015539262
82	0x3da68863	0.081314825
83	0x3e020325	0.12696512
84	0x3e13c79d	0.14431615
85	0x3d081581	0.033223633
86	0x3def9126	0.11697607
87	0x3e3d8b0e	0.18510076
88	0xbe0d292f	-0.13785242
89	0xbcdf2075	-0.027237156
90	0x3cefc5b0	0.02926907
91	0xbe215829	-0.15756287
92	0x3b8b7330	0.004255675
93	0xbca3d7b0	-0.020000309
94	0xbe04c6ce	-0.12966463
95	0x3cb792f1	0.022408934
96	0xbdd6b4ab	-0.104836784
97	0xbd7783c9	-0.060428414
98	0xb8ba9653	-8.897171e-05
99	0x3e17f195	0.1483825
100	0x3e377688	0.1791631
101	0xbdab0ee5	-0.0835245
102	0x3d30945c	0.043110237
103	0xbd84f16a	-0.064913586
104	0x3dc0cde9	0.09414274
105	0x3de47eee	0.111570224
106	0x3da09252	0.078404084
107	0xbd76968f	-0.060202178
108	0x3c2af7a4	0.010435019
109	0x3d40a30f	0.047030505
110	0x3cc8d631	0.024516197
111	0xbe0f6a06	-0.14005288
112	0x3dc023ee	0.09381853
113	0x3d225f09	0.039641414
114	0x3cce8b77	0.025212986
115	0xbceb3e0a	-0.028716106
116	0x3b215f55	0.0024623473
117	0x3deb84f8	0.11499971
118	0x3ba00e51	0.004884519
119	0xbd38a529	-0.045079384
120	0x3cddac86	0.027059805
121	0x3d8aa077	0.067688875
122	0xbd89d95f	-0.06730913
123	0x3dbc0c59	0.09182043
124	0x3be42e0f	0.0069634984
125	0x3d8069af	0.062701575
126	0x3e095003	0.13409428
127	0x3def33ee	0.11679827
128	0xbaa0796e	-0.001224322
129	0x3e1c2c1a	0.15251198
130	0xbd9cc3ac	-0.07654509
131	0xbdb9d12f	-0.09073102
132	0x3e0273e8	0.12739527
133	0x3dbbf002	0.09176637
134	0xbd148e96	-0.036268793
135	0x3cde2229	0.027115898
136	0xbd0ac357	-0.033877697
137	0x3dddaa80	0.10823536
138	0xbdb1e0e1	-0.0868547
139	0xbe040bf9	-0.12895192
140	0x3de58715	0.112074055
141	0xbc9d75b3	-0.019221162
142	0xbc923d00	-0.017851353
143	0x3dceef45	0.10104231
144	0x3a1c0f7f	0.0005953237
145	0xbdc82397	-0.09772413
146	0x3e167465	0.14692838
147	0x3da75746	0.08170943
148	0x3dee2769	0.11628611
149	0xbdd2e8a0	-0.10298276
150	0x3d799978	0.060937375
151	0x3d25aa61	0.04044569
152	0x3dedf547	0.116190486
153	0xbd639d4d	-0.055569936
154	0xbc06d4ae	-0.008229418
155	0x3d85f37d	0.06540582
156	0xbd05f1ec	-0.032701418
157	0x3d3587ab	0.044318836
158	0xbe0a4c2a	-0.13505617
159	0x3e439ccc	0.19102782
160	0x3e2c715d	0.1684012
161	0x3cc64697	0.024203582
162	0x3d912c20	0.07088494
163	0xbdb9642f	-0.09052312
164	0xbdaab2d6	-0.083348915
165	0xbd7f0ab1	-0.062266055
166	0x3e37255f	0.1788535
167	0x3e00ee09	0.12590803
168	0xbdf89d79	-0.121394105
169	0xbe096187	-0.1341611
170	0xbd4e9907	-0.050438907
171	0x3c8fd83c	0.017559163
172	0xbd8a5959	-0.06755323
173	0xbd07f067	-0.03318825
174	0xbd8b79f3	-0.06810369
175	0xbd793629	-0.060842667
176	0x3de29644	0.11063817
177	0x3e4dd34c	0.20100135
178	0x3e1992f2	0.14997461
179	0x3e49fad4	0.1972459
180	0x3e35ed96	0.17766413
181	0x3dcffa50	0.10155165
182	0xbc8d92ae	-0.017281856
183	0x3c8e6e09	0.017386453
184	0xbc66370e	-0.014051212
185	0x3e115511	0.14192607
186	0x3d08f969	0.03344098
187	0xbcbcaf0e	-0.023032691
188	0x3e39da68	0.18149722
189	0xbd96a800	-0.07356262
190	0x3d98821d	0.07446692
191	0xbe004798	-0.12527311
192	0xbd71261d	-0.05887424
193	0xbe40b8f0	-0.18820548
194	0xbe1e99a7	-0.15488301
195	0x3c326fbc	0.010890897
196	0xbe125e5e	-0.1429381
197	0x3e10d44a	0.14143482
198	0xbdb10d00	-0.08645058
199	0xbd23a626	-0.039953373
200	0x3e439ba1	0.19102336
201	0x3c84db16	0.01621775
202	0xbbdb7b03	-0.0066980137
203	0x3bed69a6	0.0072452603
204	0x3d7b744d	0.06139021
205	0xbe0ed46c	-0.1394822
206	0x3ba04399	0.004890871
207	0xbd1cc2c2	-0.038271673
208	0xbe17fc53	-0.14842348
209	0xbcd1e31c	-0.02562099
210	0xbd864d34	-0.06557694
211	0xbdbd8471	-0.09253777
212	0xbcffa7a1	-0.031207861
213	0x3d0bb3d8	0.03410706
214	0xbe602eb9	-0.21892823
215	0xbaa5ace6	-0.0012640029
216	0xbc3ec2cf	-0.011643126
217	0x3d9cad18	0.076502025
218	0x3d1443bb	0.036197405
219	0x3d8e3c7d	0.06945131
220	0x3cf183f8	0.029481873
221	0xbe0b4f54	-0.1360448
222	0x3da66596	0.08124845
223	0xbdea5602	-0.11442186
224	0xbc2e6f6b	-0.010646681
225	0xbe44ee10	-0.19231439
226	0x3e07b818	0.1325382
227	0x3db0f140	0.08639765
228	0xbc760683	-0.015016201
229	0xbde25e6d	-0.110531665
230	0xbba4646c	-0.005016854
231	0xbd03b9f0	-0.032159746
232	0x3da9a657	0.0828368
233	0x3e287fd6	0.16455016
234	0xbc802563	-0.015642827
235	0x3d3e2327	0.046420243
236	0xbe59e46c	-0.21278542
237	0x3e089090	0.13336396
238	0xbd8f30f7	-0.06991761
239	0xbb7f0fb0	-0.0038919263
240	0xbc9eaa49	-0.019368308
241	0xbcae77d5	-0.021297375
242	0xbc84ed7a	-0.016226519
243	0x3e2e0838	0.16995323
244	0x3e10daa8	0.1414591
245	0x3ccc11cf	0.024910836
246	0xbe5e2eed	-0.21697588
247	0x3ccdbf0a	0.025115509
248	0x3e273994	0.16330558
249	0xbdb863d1	-0.090034135
250	0xbda27c2a	-0.07933839
251	0xbe27d843	-0.16391091
252	0xbdbc424e	-0.09192334
253	0x3d416190	0.047212183
254	0xbd40b31e	-0.04704582
255	0x3dd8d2ec	0.10587105

weight_hh_l0 f4 [120, 40]
0	0x3d7c526b	0.061602037
1	0xbc95e7a1	-0.018298926
2	0xbd2715b3	-0.04079218
3	0xbdd8f629	-0.10593826
4	0x3e12d724	0.14339882
5	0xbe070ce1	-0.13188507
6	0x3db9b182	0.0906706
7	0xbd86a19e	-0.06573795
8	0x3e2c2251	0.16809966
9	0x3e3264fe	0.17421338
10	0x3de9bb78	0.1141271
11	0x3e0b8607	0.13625346
12	0xbe042067	-0.12902986
13	0xbe12cf4a	-0.14336887
14	0xbd80a838	-0.06282085
15	0xbe0e4989	-0.13895239
16	0x3dbec676	0.09315197
17	0x3d047ba4	0.032344475
18	0x3e11f0ce	0.14252016
19	0x3cc21e14	0.023695983
20	0xbd2e42ed	-0.042544294
21	0x3e2705a9	0.16310753
22	0xbdf06977	-0.11738866
23	0xbdf2e1cd	-0.11859474
24	0x3da1d1d2	0.07901348
25	0x3d970cf2	0.07375516
26	0xbe1fb916	-0.15597948
27	0x3dd359d2	0.10319866
28	0x3dabf804	0.083969146
29	0x3e2d0aff	0.16898726
30	0x3da61e1b	0.08111211
31	0xbdb19a10	-0.08671963
32	0x3d8a26c9	0.06745679
33	0xbd767645	-0.060171384
34	0xbe2c2f95	-0.16815026
35	0x3e065016	0.13116488
36	0xbd832057	-0.06402653
37	0xbc85057c	-0.016237967
38	0x3d8943f0	0.06702411
39	0x3d877427	0.06613951
40	0xbe0a86df	-0.13528012
41	0xbd51d3c0	-0.05122733
42	0xbda1fd41	-0.079096325
43	0x3cebaedb	0.028769901
44	0xbdba90a0	-0.09109616
45	0x3dbdfa75	0.092762865
46	0x3bad0735	0.0052804
47	0x3cccced4	0.025000967
48	0xbdcda2da	-0.10040827
49	0xbdc60046	-0.09668021
50	0xbd8a7f3f	-0.067625515
51	0x3dededfe	0.11617659
52	0xbe37d685	-0.17952926
53	0xbdc79320	-0.09744859
54	0x3bdfbda2	0.006828026
55	0xbdfba984	-0.12288192
56	0x3e41cfe7	0.18926965
57	0x3c92af3a	0.01790582
58	0xbcd783bf	-0.026307939
59	0xbe32a023	-0.174439
60	0x3d894518	0.06702632
61	0xbd1df811	-0.038566653
62	0x3d6c44fb	0.057682972
63	0x3e4421e4	0.19153553
64	0xbe02b780	-0.12765312
65	0x3dcee265	0.10101775
66	0xbe05b8b5	-0.13058741
67	0xbe3c90ec	-0.18414658
68	0xbe3e9689	-0.18612112
69	0xbd3e54d2	-0.04646761
70	0xbcb14d6b	-0.021643361
71	0xbc903274	-0.017602183
72	0xbde1d5be	-0.11027096
73	0xbcff6812	-0.031177554
74	0xbd263224	-0.04057516
75	0x3d2d6dbc	0.04234098
76	0x3cd1eef9	0.025626646
77	0xbdf1d59a	-0.118083194
78	0xbc4eb198	-0.012615584
79	0x3c47a8bc	0.0121862255
80	0x3d8fa97a	0.07014747
81	0x3e3229f6	0.1739882
82	0x3db82f0f	0.08993351
83	0xbdadf4e2	-0.08493973
84	0x3e2778b5	0.1635464
85	0xbddcc0f5	-0.10778991
86	0x3e1e7c83	0.15477185
87	0x3d09286a	0.033485807
88	0xbb46ade8	-0.0030316059
89	0xbdce3b8e	-0.10069953
90	0x3d1c2536	0.038121425
91	0xbe21ad6d	-0.15788813
92	0xbe58e95f	-0.21182774
93	0xbda98a5f	-0.08278345
94	0x3dc8f462	0.09812237
95	0xbde12995	-0.10994259
96	0xbdba255c	-0.09089157
97	0xbdaa6259	-0.083195396
98	0x3dba09ca	0.09083898
99	0x3d96b533	0.0735878
100	0xbca30508	-0.01989986
101	0x3e607f56	0.21923575
102	0xbe02434b	-0.12720983
103	0xbce8cf18	-0.028419062
104	0xbd244fe5	-0.040115256
105	0x3d303e66	0.043028258
106	0xbd97eb77	-0.07417958
107	0xbdff879a	-0.12477036
108	0xbd79a6a8	-0.06094995
109	0x3da3a45f	0.07990336
110	0x3dea9b37	0.11455386
111	0xbe0a52eb	-0.13508193
112	0x3deedd43	0.11663296
113	0x3e18ebeb	0.14933746
114	0x3dc0e319	0.094183154
115	0xbd4b1afc	-0.04958628
116	0x3cd8dbe6	0.026472043
117	0xbc9ca21b	-0.019120267
118	0x3cb87b91	0.022519859
119	0xbd8450cb	-0.064607225
120	0xbe24dba6	-0.16099414
121	0x3db8ba42	0.09019901
122	0x3e40f7a7	0.18844472
123	0x3e229a63	0.15879206
124	0xbe117404	-0.14204413
125	0xbdfe951c	-0.12430784
126	0x3d1d3334	0.03837891
127	0xbd569c42	-0.052395113
128	0x3d9fe694	0.07807651
129	0x3def85c7	0.11695438
130	0x3caf8978	0.021427855
131	0x3d536c5b	0.051617008
132	0x3a994bcd	0.0011695564
133	0xbe4e7f31	-0.20165707
134	0xbddadfa9	-0.10687191
135	0xbcc25d96	-0.023726266
136	0xbc8a057f	-0.016848324
137	0x3d8f32d5	0.06992117
138	0xbdccf025	-0.100067414
139	0x3da3355e	0.07969163
140	0xbe03c0ba	-0.12866488
141	0xbdb69051	-0.08914245
142	0xbdc0fe8f	-0.09423553
143	0x3dda86b7	0.10670226
144	0x3dac6942	0.08418514
145	0xbd6c926f	-0.057756837
146	0xbe1fb905	-0.15597923
147	0xbd9762ea	-0.07391913
148	0xbdabee77	-0.08395093
149	0x3d8e93c5	0.069617786
150	0x3d8aba3a	0.06773801
151	0x3cf2b9ea	0.029629666
152	0xbd3fa473	-0.04678769
153	0x3e47e438	0.19520652
154	0x3dbcb113	0.09213462
155	0xbd12ce79	-0.03584144
156	0xbc1fd6e0	-0.00975582
157	0x3bf9a764	0.0076188315
158	0xbdf33efc	-0.11877248
159	0xbd8b0ab5	-0.067891516
160	0xbbcc5823	-0.0062360927
161	0xbd8eb6a7	-0.06968432
162	0xbc9f93b0	-0.019479603
163	0x3e29b2b8	0.16572082
164	0xbd8648ce	-0.06556855
165	0xbd541e77	-0.051786866
166	0x3d7fe572	0.062474675
167	0x3dea5284	0.1144152
168	0x3e20e449	0.15712084
169	0xbde0c9ca	-0.10975988
170	0x3d880e5c	0.06643364
171	0xbdadd98c	-0.084887594
172	0xbd9f2d78	-0.07772344
173	0xbe1b1ba0	-0.15147257
174	0x3e037534	0.12837678
175	0x3c96f262	0.018426124
176	0xbdefea87	-0.117146544
177	0xbe39eec2	-0.18157485
178	0x3d87b774	0.06626788
179	0xbe009870	-0.1255815
180	0x3da05d29	0.07830269
181	0x3e0209a0	0.12698984
182	0x3c85405a	0.016266037
183	0x3d58b94c	0.052911088
184	0x3d2d5b92	0.042323656
185	0xbe059db1	-0.13048436
186	0x3da6306f	0.08114707
187	0xbdaa07e8	-0.08302289
188	0x3d08b253	0.03337319
189	0x3dde1ac9	0.108449526
190	0xbca948c0	-0.020664573
191	0xbe4b4f99	-0.19854583
192	0x3d0a518f	0.033769187
193	0x3de7c244	0.1131635
194	0x3c9e50f5	0.019325713
195	0xbd6aee28	-0.05735603
196	0xbe07dd5d	-0.13268037
197	0x3d1ba995	0.038003523
198	0xbda8ad40	-0.0823617
199	0xbd230bdd	-0.039806236
200	0x3d1e4062	0.03863562
201	0x3d744f6c	0.059646055
202	0x3d9a1e76	0.07525341
203	0xbe15f56f	-0.14644407
204	0xbd7b4b36	-0.061351024
205	0xbd60f5ac	-0.05492179
206	0x3d2a6d9a	0.04160843
207	0x3e27c6a6	0.16384372
208	0x3d5696fe	0.05239009
209	0x3d839288	0.06424433
210	0xbddac91b	-0.10682889
211	0x3cbdd21c	0.023171477
212	0xbd2f8a70	-0.042856634
213	0x3ce9663d	0.028491134
214	0xbdc99a9b	-0.09843942
215	0x3d18bc8b	0.037289184
216	0xbe14ac26	-0.14518794
217	0xbd7a0cda	-0.061047412
218	0x3d1fdbcf	0.039027985
219	0xbcecdaa8	-0.028912857
220	0xbd91d5d2	-0.07120861
221	0x3e0332b7	0.12812315
222	0x3cbfa4ae	0.023393955
223	0x3dc4f3db	0.09616824
224	0xbe45c302	-0.19312671
225	0xbcd0d384	-0.025491484
226	0x3e1b11ad	0.15143462
227	0xbd52f7b1	-0.05150575
228	0xbdebdbfc	-0.11516568
229	0x3db5d5eb	0.08878692
230	0x3e3b8a10	0.18314385
231	0x3df9fa1b	0.12205907
232	0x3e11e81f	0.14248703
233	0x3cd1ff8a	0.025634546
234	0xbe099f74	-0.13439733
235	0xbd080ebf	-0.033217188
236	0xbe2c7c9a	-0.16844407
237	0xbdacfe4d	-0.084469415
238	0xbd86d5d1	-0.06583751
239	0xbcf78efc	-0.030219547
240	0xbd98ff03	-0.074705146
241	0x3d963ce9	0.073358364
242	0xbdc46d41	-0.09591151
243	0x3e0e0d76	0.13872322
244	0xbc183cf6	-0.009291878
245	0x3d615c77	0.055019822
246	0xbd4ca495	-0.049961645
247	0xbe18a578	-0.14906871
248	0x3c91115d	0.017708475
249	0x3e0d5a7f	0.13804053
250	0x3d1b74eb	0.0379533
251	0x3e17fb95	0.14842065
252	0x3d92f968	0.07176477
253	0x3dcedfcd	0.1010128
254	0xbd817f31	-0.06323088
255	0x3d991570	0.07474792

bias_ih_l0 f4 [120]
0	0x3d984d54	0.07436624
1	0xbd93d5ea	-0.07218535
2	0x3d924719	0.07142467
3	0xbd15cf8e	-0.036574893
4	0x3dae1a01	0.085010536
5	0x3dfea068	0.12432939
6	0xbe03a4c3	-0.1285582
7	0xbdc5687c	-0.096390694
8	0x3d7fe996	0.062478624
9	0xbd35ecfc	-0.04441546
10	0xbdc5a024	-0.09649685
11	0x3e157dc6	0.1459876
12	0xbc19633a	-0.009362036
13	0xbc689302	-0.014195206
14	0xbe07b691	-0.13253237
15	0xbc827217	-0.015923543
16	0xbd2b4efb	-0.04182337
17	0xbc797a6f	-0.015226944
18	0xbd0f7f41	-0.03503347
19	0xbdaa7f26	-0.08325033
20	0xbd8725ce	-0.065990075
21	0x3d7656d6	0.060141407
22	0xbdbd0fd5	-0.09231535
23	0xbd905abb	-0.070485555
24	0x3e04ef88	0.12981999
25	0xbdbc6ae8	-0.09200078
26	0x3e013f1a	0.12621728
27	0x3d663c92	0.056210108
28	0xbd75d7bf	-0.060020205
29	0x3db5777d	0.08860681
30	0x3da26803	0.07929995
31	0x3d55b38d	0.052173186
32	0x3da12abd	0.0786948
33	0xbd375ec9	-0.04476813
34	0x3ddb7b42	0.10716869
35	0xbd3f7eca	-0.046751775
36	0x3e5abeed	0.21361895
37	0xbd83c2d7	-0.06433647
38	0x3df9e487	0.12201791
39	0xbd44579e	-0.04793512
40	0x3d3b1be3	0.04568089
41	0xbe01ccc7	-0.12675773
42	0xbae58c2a	-0.0017513086
43	0xbe2b6136	-0.16736302
44	0x3c8aa3b6	0.016923767
45	0x3d219a59	0.039453838
46	0xbd49ac16	-0.04923638
47	0x3cdd265a	0.026995827
48	0x3e146c8d	0.14494534
49	0xbde437dd	-0.111434676
50	0x3d873b57	0.06603115
51	0x3ddb86ae	0.107190475
52	0x3c7aeacc	0.015314769
53	0xbdb1b013	-0.086761616
54	0x3dda0781	0.106459625
55	0xbdd093a7	-0.101844124
56	0x3d82d549	0.06388337
57	0x3daa6771	0.08320511
58	0x3dedb514	0.116068035
59	0xbd1eaac4	-0.038737074
60	0xbcaefd78	-0.021361098
61	0xbc410527	-0.011781014
62	0x3e2f2fa0	0.17108011
63	0x3cb68ffa	0.02228545
64	0x3ddbf639	0.107403226
65	0xbc99c207	-0.018769277
66	0xbd902fa8	-0.0704034
67	0xbd86bba3	-0.065787576
68	0x3d940abe	0.072286114
69	0x3e08573f	0.13314532
70	0xbe586021	-0.2113042
71	0xbc359503	-0.01108289
72	0xbcefa58d	-0.029253745
73	0xbc150a04	-0.009096626
74	0xbdd86ac5	-0.1056724
75	0x3d9d8072	0.076905146
76	0x3cb293c5	0.021798978
77	0xbe3549fa	-0.17704001
78	0x3cad95b5	0.02118955
79	0xbd678cf6	-0.056530915
80	0xbd1d5ab5	-0.038416583
81	0x3e0026c0	0.12514782
82	0xbe2e4f59	-0.17022456
83	0x3e0d9f22	0.13830236
84	0xbd666b3a	-0.056254603
85	0xbcafaa03	-0.021443373
86	0x3e2f18eb	0.17099349
87	0xbe1f5b86	-0.15562257
88	0x3dc1344e	0.094338045
89	0xbd8ce8e5	-0.068803586
90	0x3b5f7465	0.0034096476
91	0xbdce8169	-0.10083277
92	0xbe2e3430	-0.17012095
93	0xbe13c20f	-0.14429496
94	0xbdeabe8b	-0.114621244
95	0x3dc9f1f7	0.09860604
96	0x3cafec53	0.021474993
97	0x3b3e7c35	0.0029065732
98	0xbe3b7ee0	-0.18310118
99	0x3e07f726	0.13277873
100	0x3ce1d5a6	0.027567696
101	0xbde9d3ec	-0.11417374
102	0x3d52564f	0.05135184
103	0x3e096434	0.1341713
104	0xbe0ffe3f	-0.14061831
105	0x3d78bc30	0.060726345
106	0xbd24034a	-0.0400422
107	0xbdb6d9c0	-0.08928251
108	0x3df8a537	0.12140887
109	0xbd94de49	-0.0726896
110	0xbdbb0a45	-0.09132818
111	0xbd73c8c2	-0.05951763
112	0xbe16f6b5	-0.14742549
113	0x3df94ec6	0.12173228
114	0xbd2aa02a	-0.04165665
115	0x3e2eb92a	0.17062822
116	0x3e33de7b	0.17565338
117	0x3dff7570	0.12473571
118	0x3e32cddf	0.17461346
119	0x3dec0d99	0.11526031

bias_hh_l0 f4 [120]
0	0xbda8cfb7	-0.082427435
1	0xbd46b17c	-0.048509106
2	0x3d8c9947	0.06865173
3	0xbdc517c1	-0.09623671
4	0xbd3f6a17	-0.046732035
5	0xbc9ba0c1	-0.018997552
6	0xbd9d57aa	-0.07682736
7	0x3e1de2fa	0.15418616
8	0x3daed352	0.085364
9	0x3daf861d	0.08570502
10	0xbdb37ce1	-0.08764053
11	0x3e2e4564	0.17018658
12	0x3c1e947e	0.009678958
13	0xbd1b0bb1	-0.037852947
14	0xbc2890f7	-0.010288469
15	0xbdb85da2	-0.09002234
16	0x3d5fcaa8	0.054636627
17	0x3db795ed	0.08964143
18	0x3e56e4df	0.20985745
19	0xbd6ecbc4	-0.058299795
20	0xbd2ee602	-0.04269982
21	0x3dbdf3ee	0.092750415
22	0xbdfeac71	-0.12435234
23	0x3d85c92d	0.06532512
24	0xbbf0a7ea	-0.0073442357
25	0xbdaa36f0	-0.0831126
26	0xbcea237d	-0.028581375
27	0x3c430157	0.011902175
28	0xbded28e2	-0.115800634
29	0x3cf7848b	0.030214569
30	0x3dca8b37	0.098898344
31	0x3e2e0909	0.16995634
32	0xbb5806b6	-0.0032962984
33	0xbdb75485	-0.08951668
34	0xbdac6f14	-0.08419624
35	0xbe134252	-0.14380768
36	0xbc905b67	-0.017621709
37	0xbd596dfd	-0.05308341
38	0xbdc5270e	-0.0962659
39	0x3e7360cc	0.23767394
40	0x3b76796a	0.003760899
41	0x3da1522b	0.078770004
42	0x3db85a0e	0.090015516
43	0xbba306c2	-0.004975171
44	0xbe0536c3	-0.13009171
45	0x3dbb4fe0	0.09146094
46	0x3df7bf1c	0.12096998
47	0x3da157ca	0.078780726
48	0x3bad9442	0.0052972147
49	0x3dbd7ed7	0.092527084
50	0x3ce89429	0.02839096
51	0xbd57d3c6	-0.052692197
52	0x3bd58380	0.00651592
53	0x3c91cb08	0.017797008
54	0xbe215979	-0.15756787
55	0xbd7d2cbe	-0.061810248
56	0xbe02fe53	-0.1279233
57	0x3da8b9b3	0.08238544
58	0xbd644643	-0.05573107
59	0x3c3040c0	0.010757625
60	0x3d9dca29	0.077045746
61	0x3de31d2d	0.11089549
62	0xbd11a4fa	-0.035557725
63	0xbd78cc84	-0.060741916
64	0x3d97affe	0.07406615
65	0xbc825593	-0.015909946
66	0x3d57d93f	0.052697416
67	0x3cd2802c	0.025695883
68	0xbc54f49c	-0.012997773
69	0x3da23dcb	0.07921942
70	0xbe047656	-0.12935767
71	0x3e22a855	0.15884526
72	0xbd2fe280	-0.042940617
73	0xbe22bc8a	-0.15892234
74	0xbde6cbec	-0.11269364
75	0x3dd80778	0.105482996
76	0xbe371ccb	-0.17882077
77	0x3d7fc2fc	0.06244181
78	0xbd8c7172	-0.068575755
79	0xbd937611	-0.07200254
80	0x3d930f37	0.071806364
81	0x3dd4ec50	0.103966355
82	0xbde87eb9	-0.113522954
83	0xbcd89f98	-0.026443288
84	0x3d17d5b3	0.037069034
85	0x3e06a48c	0.13148707
86	0xbd307fb0	-0.043090522
87	0xbd97d3ff	-0.07413482
88	0x3e17755a	0.1479086
89	0x3de77c21	0.113029726
90	0xbe09fd2d	-0.13475485
91	0x3ddd3db0	0.108027816
92	0xbe29e274	-0.16590291
93	0x3d88c18f	0.06677543
94	0xbc7997ce	-0.015233947
95	0xbc71c70d	-0.01475693
96	0x3dd20a85	0.10255913
97	0x3c3b7b12	0.0114429165
98	0xbda5ae7e	-0.08089922
99	0x3d6c6824	0.057716504
100	0xbdb962c0	-0.09052038
101	0xbe1fe87f	-0.15616034
102	0xbdd11e2e	-0.102108344
103	0x3df2a6e0	0.11848235
104	0xbd980020	-0.07421899
105	0xbc59c107	-0.01329065
106	0xbdf8758c	-0.12131795
107	0xbdeb9d88	-0.11504656
108	0x3de686af	0.112561576
109	0x3ca08cb8	0.01959835
110	0xbe0d2e28	-0.13787138
111	0xbcdab88c	-0.026699327
112	0x3da9701a	0.08273335
113	0x3d60b255	0.05485757
114	0x3e0c12a0	0.1367898
115	0xbd897935	-0.067125715
116	0x3de786a8	0.113049805
117	0xbcde0906	-0.027103912
118	0x3d8541c6	0.06506686
119	0x3de13c3c	0.10997817

weight_ih_l0_reverse f4 [120, 88]
0	0xbdde0e3f	-0.10842561
1	0xbe3efd05	-0.18651207
2	0xbdfcae22	-0.12337901
3	0xbdcb365d	-0.09922478
4	0x3cbca82a	0.023029406
5	0xbe13be35	-0.14428027
6	0xbe39ffd7	-0.18164001
7	0x3d75d26a	0.06001512
8	0x3e4193f6	0.18904099
9	0xbe196a99	-0.1498207
10	0x3e63f147	0.22260009
11	0x3dc2849c	0.094979495
12	0x389f0e90	7.584423e-05
13	0x3e59cd60	0.2126975
14	0xbddf93ac	-0.10916838
15	0x3d8c86e2	0.06861664
16	0x3d2c1d3a	0.04202006
17	0x3e1ec666	0.1550537
18	0xbe0d9cee	-0.13829395
19	0xbe1cf85a	-0.15329114
20	0x3b952354	0.0045513306
21	0xbc9282b3	-0.017884588
22	0x3e1321f9	0.14368428
23	0xbe09f9c9	-0.13474192
24	0xbe03a256	-0.12854895
25	0xbcc60925	-0.024174282
26	0x3e287f5b	0.16454832
27	0x3d9d4b48	0.076803744
28	0x3d9717f5	0.07377616
29	0xbca1f5c6	-0.019770514
30	0xbdf41228	-0.119175255
31	0xbe25076b	-0.16116111
32	0xbdee65c1	-0.11640502
33	0xbbd5f1f8	-0.006529089
34	0x3dbf8750	0.09351981
35	0x3cb52e06	0.022116672
36	0xbe19a3a7	-0.15003835
37	0x3d7ceeb4	0.061751083
38	0x3e26ec48	0.16301072
39	0xbdac2934	-0.08406296
40	0xbdd00550	-0.10157263
41	0xbe3ac08d	-0.18237515
42	0x3deccb37	0.11562198
43	0x3e0091fb	0.12555687
44	0x3d055f7f	0.032561775
45	0x3d8f50f0	0.069978595
46	0xbd280b2d	-0.041026283
47	0xbd848b9c	-0.06471941
48	0xbd90a042	-0.07061817
49	0x3e0b46f8	0.13601291
50	0x3d2b05a1	0.041753415
51	0xbd9ad4f8	-0.07560152
52	0x3df61c91	0.12017167
53	0xbe260489	-0.16212668
54	0xbd5441e2	-0.051820643
55	0xbd1695ba	-0.036763884
56	0xbd5e3e00	-0.054258347
57	0xbd8d09b1	-0.06886614
58	0xbc35d6da	-0.011098588
59	0x3d8bfabc	0.06834933
60	0xbcb4ccb0	-0.022070259
61	0x3d8d326e	0.06894384
62	0xbc2f3755	-0.0106943445
63	0x3c9879d6	0.018612783
64	0xbccd4df4	-0.025061585
65	0x3e2b5a0b	0.16733567
66	0x3dcc4e9b	0.0997593
67	0xbe29b16d	-0.16571589
68	0xbd83263b	-0.06403776
69	0xbd2a984d	-0.04164915
70	0xbcf836e2	-0.030299608
71	0x3dd26f38	0.102751195
72	0x3d2c5585	0.042073745
73	0xbe0c036d	-0.13673182
74	0xbe1d962f	-0.15389322
75	0x3d637653	0.055532765
76	0x3d3d2762	0.046180137
77	0x3d60b476	0.0548596
78	0xbd8e892d	-0.06959758
79	0x3d4f6cab	0.050640743
80	0xbd24695e	-0.04013955
81	0xbd61de54	-0.05514367
82	0xbe10db37	-0.14146124
83	0xbdadd5ee	-0.084880695
84	0x3df05b46	0.11736159
85	0x3df3ca84	0.11903861
86	0xbe301da6	-0.1719881
87	0x3c91be14	0.017790832
88	0xba92be7d	-0.0011195686
89	0x3e18b937	0.14914404
90	0x3c6e67b2	0.01455109
91	0x3dd2d3b3	0.10294285
92	0x3b842564	0.0040327776
93	0x3d6c36da	0.057669498
94	0x3d52a4a2	0.051426537
95	0xbdb01f79	-0.08599753
96	0xbc932b32	-0.017964933
97	0x3cb8dc52	0.022565994
98	0xbdbb320a	-0.091404036
99	0xbc57662e	-0.01314692
100	0x3e40f287	0.18842517
101	0x3cb76863	0.022388643
102	0xbd5025c6	-0.050817274
103	0x3c871cef	0.016493289
104	0xbc198555	-0.009370168
105	0x3dcbb5c7	0.09946781
106	0x3d3b340b	0.04570393
107	0x3d788610	0.060674727
108	0xbb279255	-0.0025569398
109	0xbbd8906c	-0.0066090133
110	0x3dab52da	0.08365412
111	0xbdbf1b18	-0.093313396
112	0xbd40718b	-0.046983283
113	0x3cd14692	0.025546346
114	0xbd19111a	-0.037369825
115	0xbdfb727c	-0.122776955
116	0x3e03c1d8	0.12866914
117	0xbe0305c6	-0.12795171
118	0x3e273c4b	0.16331594
119	0xbdf4c3d3	-0.11951413
120	0x3d26cf91	0.040725295
121	0x3c9cb6b1	0.019130083
122	0x3e0d9cac	0.13829297
123	0xbd574c21	-0.052562837
124	0xbe4c4279	-0.19947232
125	0xbdbf242e	-0.093330726
126	0x3da212ac	0.07913718
127	0x3d94e937	0.07271045
128	0xbdbbf0fc	-0.091768235
129	0xbe139653	-0.14412813
130	0x3e419fdb	0.18908636
131	0x3dec4287	0.115361266
132	0xbcf7367a	-0.030177344
133	0xbdc314b6	-0.09525435
134	0x3da29357	0.07938259
135	0xbd262a49	-0.04056767
136	0xbcd36702	-0.025805954
137	0xbcbd3cea	-0.023100335
138	0xbdd449ed	-0.10365663
139	0x3d9e1fb5	0.077208914
140	0x3dcae6bd	0.09907291
141	0xbd877dfe	-0.06615828
142	0xbdb7caf7	-0.08974259
143	0xbe05cdf3	-0.13066845
144	0xbdb06749	-0.0861345
145	0xbb532483	-0.0032217808
146	0xbdeabfc0	-0.11462355
147	0xbca82357	-0.020524664
148	0xbe1f8153	-0.15576677
149	0x3c960b77	0.018316014
150	0xbcd1bc0b	-0.025602361
151	0xbe265449	-0.1624309
152	0xbdeadfaf	-0.114684455
153	0x3c9da25c	0.019242458
154	0xbdf2ecab	-0.11861547
155	0x3db82d7e	0.08993052
156	0xbe0129eb	-0.12613647
157	0x3c107101	0.008816005
158	0xbc66a153	-0.014076549
159	0x3dd958d7	0.10612648
160	0xbd4982a8	-0.04919687
161	0xbd98696e	-0.07441984
162	0x3d38b1ed	0.04509156
163	0x3e19f8c7	0.15036307
164	0x3de2354c	0.11045322
165	0x3df3ca5e	0.11903833
166	0xbda3a3a2	-0.07990195
167	0xbd1b1333	-0.037860107
168	0xbd853e76	-0.06506054
169	0x3e1eebb8	0.15519607
170	0x3e23d5b5	0.15999492
171	0xbe2271a7	-0.15863667
172	0x3e38efdf	0.18060254
173	0xbdf40d47	-0.11916595
174	0xbd1701ac	-0.03686683
175	0x3dd6b660	0.10484004
176	0xbdb07186	-0.08615403
177	0x3d4e1feb	0.050323408
178	0xbd110dc4	-0.03541352
179	0x3e173b2a	0.14768663
180	0x3db1341f	0.086525194
181	0xbd8e58ff	-0.069505684
182	0xbb3c24fd	-0.002870857
183	0x3e1bed68	0.15227282
184	0xbe3a6727	-0.18203412
185	0xbbcf89f6	-0.006333585
186	0xbdba39a9	-0.09093029
187	0xbc0dfa2c	-0.008665603
188	0x3df5d743	0.120039485
189	0x3cdae37d	0.026719803
190	0xbc0cf4e2	-0.0086033065
191	0xbd1d6e15	-0.03843506
192	0x3ce78727	0.028262688
193	0x3d475ebb	0.048674326
194	0xbb826bf5	-0.0039801546
195	0xbe191739	-0.14950265
196	0xbce43809	-0.02785875
197	0xbe0ea526	-0.13930187
198	0xbcd17e08	-0.025572792
199	0xbd101b7e	-0.03518247
200	0x3bf04f65	0.0073336833
201	0x3dc3e5a1	0.095652826
202	0x3df07660	0.11741328
203	0xbe1c99a2	-0.15292981
204	0xbe0b80b2	-0.13623312
205	0x3d4da42c	0.050205395
206	0xbdf9e806	-0.12202458
207	0x3ddeac4b	0.10872706
208	0xbe45feaf	-0.19335435
209	0xbe16934b	-0.14704625
210	0xbdee29be	-0.116290554
211	0x3e134a4c	0.14383811
212	0x3d09d594	0.03365095
213	0xbd898d67	-0.067164235
214	0xbc548872	-0.012971984
215	0x3d111fef	0.035430845
216	0xbd7dbf47	-0.061949994
217	0xbdf5e91f	-0.12007355
218	0x3b2075bc	0.0024484238
219	0xbd845092	-0.0646068
220	0x3ddf516c	0.10904202
221	0x3da64b38	0.081198156
222	0xbdc538e6	-0.09629993
223	0x3e424260	0.18970633
224	0xbdacdd9e	-0.084407076
225	0x3dafb72b	0.085798584
226	0xbdb9ca05	-0.09071735
227	0x3d24cb91	0.0402332
228	0x3e0e1a6e	0.1387727
229	0xbdf58e2a	-0.11990006
230	0xbdc043c8	-0.09387928
231	0xbd7be326	-0.061495923
232	0xbbceaf2f	-0.0063075046
233	0xbdf140d8	-0.11779946
234	0xbe019387	-0.12653933
235	0xbe0061fc	-0.12537378
236	0x3cb38439	0.021913635
237	0xba99b5b0	-0.0011727121
238	0xbd91e4a2	-0.071236864
239	0xbdcf5df1	-0.1012534
240	0x3b3ca675	0.002878574
241	0xbdcf191e	-0.101122126
242	0xbdc871e3	-0.09787347
243	0xbd836821	-0.064163454
244	0xbdf8e9e9	-0.1215399
245	0x3df4b7d0	0.11949122
246	0xbd71e56c	-0.059056684
247	0x3e415782	0.18881038
248	0x3da8c441	0.082405575
249	0x3dc1bb4a	0.09459551
250	0x3e1b38dd	0.1515841
251	0xbe04f18d	-0.1298277
252	0xbcf85b6f	-0.030317036
253	0xbdb51e96	-0.088437244
254	0xbdec6b2c	-0.11543879
255	0xbc58e2d3	-0.013237673

weight_hh_l0_reverse f4 [120, 40]
0	0x3e1f6a0a	0.15567794
1	0xbdc14266	-0.094364926
2	0xbe412a67	-0.18863831
3	0xbe35ca3e	-0.1775293
4	0x3bb734ae	0.0055909967
5	0x3d71e7fe	0.059059136
6	0xbb825d00	-0.0039783716
7	0x3e159fd3	0.1461175
8	0x3c2b9dae	0.0104746055
9	0x3cd3816e	0.025818553
10	0x3aa5a122	0.0012636522
11	0xbd0990c8	-0.03358534
12	0xbd2cf8ad	-0.042229343
13	0xbdc1ca14	-0.094623715
14	0x3c9f724e	0.019463684
15	0x3e0214a7	0.1270319
16	0xbcf8b987	-0.030361904
17	0xbdb6c0e3	-0.08923509
18	0xbd835ce0	-0.06414199
19	0xbd804042	-0.06262256
20	0xbd1b4f58	-0.037917465
21	0xbd5ae0e4	-0.05343713
22	0x3d902593	0.07038417
23	0xbda2a155	-0.07940928
24	0xbdec7f96	-0.115477726
25	0xbd405406	-0.04695513
26	0x3e206095	0.15661843
27	0xbd738166	-0.059449576
28	0xbd25fb30	-0.040522754
29	0xbe118a92	-0.14213017
30	0x3ddaae13	0.10677733
31	0xbd86f95e	-0.06590532
32	0x3dc05af2	0.093923464
33	0x3de67e44	0.11254552
34	0xbe2c8204	-0.16846472
35	0x3d1faf80	0.03898573
36	0xbd1be567	-0.038060572
37	0xbe1e09dc	-0.15433449
38	0x3e317e4b	0.17333333
39	0x3dffe298	0.12494391
40	0x3c27b689	0.010236391
41	0x3d54d017	0.051956262
42	0xbdb80e6e	-0.08987127
43	0xbc6ce905	-0.014459853
44	0x3dce4222	0.100712076
45	0x3d483fcd	0.04888897
46	0xbe1362ea	-0.14393201
47	0xbdb74e2a	-0.089504555
48	0xbe429b64	-0.1900459
49	0x3bc111f0	0.005892031
50	0xbe394fc1	-0.1809683
51	0x3e3da379	0.18519391
52	0x3dded3f1	0.10880268
53	0xbe1c8993	-0.15286855
54	0xbd0e8660	-0.03479612
55	0x3e1d1d4d	0.15343209
56	0x3e30cdc0	0.17265987
57	0xbd6f6b1e	-0.058451764
58	0xbd5c4e69	-0.053785715
59	0x3de8dbf3	0.11370077
60	0xbde1175d	-0.10990784
61	0xbd8ac47b	-0.06775757
62	0xbd2650d5	-0.04060443
63	0x3d6838d9	0.05669484
64	0xbdab5dbf	-0.0836749
65	0xbd786492	-0.060642786
66	0x3e2c33bc	0.1681661
67	0x3e0f6614	0.14003783
68	0xbdc0f0ab	-0.09420904
69	0xbdab1caa	-0.083550766
70	0xbd6997b0	-0.057029426
71	0x3c94fd7c	0.018187277
72	0x3d643e3e	0.05572342
73	0x3cbf9997	0.023388667
74	0xbdd14ceb	-0.10219749
75	0x3e30586e	0.17221233
76	0x3e0b9bf3	0.13633709
77	0xbccd84e5	-0.025087783
78	0xbddf2b94	-0.10896984
79	0x3d9c095d	0.076189734
80	0x3d546254	0.051851586
81	0xbded6b95	-0.11592785
82	0xbc8ff1f5	-0.017571429
83	0xbc2a97c1	-0.0104121575
84	0xbe15ebdb	-0.14640753
85	0x3d8ed99f	0.06975102
86	0xbd8ff475	-0.07029048
87	0xbd8e3117	-0.06942957
88	0xbe04679c	-0.12930149
89	0x3d8db398	0.069190204
90	0xbcaaaa7d	-0.020833248
91	0x3dba0685	0.09083275
92	0x3d217011	0.039413515
93	0x3c9da33a	0.019242872
94	0x3d15f720	0.03661263
95	0x3db2c684	0.0872927
96	0x3bd8b36d	0.006613186
97	0xbde59f6c	-0.11212048
98	0x3e01f1e7	0.12689935
99	0x3d8d62a7	0.06903582
100	0xbe11705e	-0.14203021
101	0x3d80b4cc	0.06284484
102	0xbcb7bbb3	-0.02242837
103	0xbe1e3b5c	-0.15452331
104	0x3dc151f2	0.09439458
105	0x3e16a649	0.1471187
106	0x3cf8b306	0.030358803
107	0x3d57cb26	0.05268397
108	0xbe204791	-0.156523
109	0xbe0c2d74	-0.13689214
110	0x3d99d917	0.0751211
111	0x3de86590	0.113474965
112	0xbcae5736	-0.02128182
113	0xbdca3f01	-0.09875298
114	0xbcd4d9e0	-0.025982797
115	0x3def32cf	0.11679613
116	0x3d2da33b	0.042391997
117	0xbd8c0b47	-0.068380885
118	0x3d956490	0.072945714
119	0x3e196bff	0.14982603
120	0xbd33ae4d	-0.043867398
121	0x3e00e5f3	0.12587719
122	0xbd0d6d0c	-0.034527823
123	0x3d12ef01	0.035872463
124	0xbd40e607	-0.04709437
125	0x3d8dbe79	0.069210954
126	0x3dcde2fa	0.10053058
127	0x3dbefad4	0.093251854
128	0xbd3d7b09	-0.046259914
129	0x3d55044d	0.052006055
130	0x3da5f824	0.0810397
131	0x3bc87a89	0.006118123
132	0xbda18275	-0.07886211
133	0xbdbda232	-0.09259452
134	0xbdd5a2c0	-0.10431433
135	0xbce5cc4e	-0.028051522
136	0xbd87fcb8	-0.06639999
137	0xbd846aa3	-0.06465652
138	0xbb82ee1b	-0.0039956695
139	0xbe17aa83	-0.14811139
140	0xbe286b0f	-0.1644709
141	0xbe3ec160	-0.18628454
142	0x3e1cd036	0.15313801
143	0xbcfe23e6	-0.031022977
144	0x3d51cbdb	0.051219802
145	0xbd8a50c4	-0.06753686
146	0x3e079860	0.1324172
147	0x3e25de29	0.16198029
148	0x3d843c7c	0.06456849
149	0xbe15737f	-0.1459484
150	0xbc61ace4	-0.0137741305
151	0x3dc867d1	0.097854264
152	0x3df30e38	0.118679464
153	0xbddacf14	-0.10684028
154	0x3d8883de	0.06665777
155	0x3cf62e0b	0.030051252
156	0x3d1c86a9	0.03821436
157	0xbda7d589	-0.081950255
158	0x3da77c3c	0.08177993
159	0x3dd059d4	0.10173383
160	0x3e04085f	0.12893818
161	0x3ce60389	0.028077858
162	0xbd8a904c	-0.06765804
163	0x3d99e99a	0.07515259
164	0xbdd93a89	-0.10606868
165	0x3d80e30a	0.06293304
166	0xbe194a35	-0.14969714
167	0xbbf9e108	-0.007625703
168	0xbd23e421	-0.040012483
169	0xbe15ef30	-0.14642024
170	0xbd97e59b	-0.07416841
171	0xbdde34a1	-0.10849882
172	0xbd80b8f4	-0.06285277
173	0xbd3b502c	-0.045730755
174	0xbd2c99e8	-0.042138964
175	0x3d7b6a93	0.061380934
176	0xbc601001	-0.013675691
177	0xbbd86a74	-0.006604487
178	0xbd85c48b	-0.06531628
179	0xbb34978d	-0.0027556152
180	0xbdf23892	-0.11827196
181	0x3dd89542	0.10575344
182	0xba46461c	-0.00075635477
183	0xbd2260b7	-0.039643016
184	0xbdaebd4f	-0.085322015
185	0xbdb41b20	-0.08794236
186	0xbcf7eeff	-0.03026533
187	0x3dd3341e	0.10312675
188	0xbd6252c6	-0.05525472
189	0xbdb540c6	-0.08850245
190	0xbd98ea2d	-0.074665405
191	0xbd753b49	-0.05987099
192	0xbd2de407	-0.042453792
193	0xbda81492	-0.082070485
194	0xbdaff291	-0.08591188
195	0x3de8c4d8	0.1136567
196	0x3cefc477	0.029268486
197	0x3c5da47b	0.013527985
198	0x3e0d085b	0.13772719
199	0xbe06be38	-0.131585
200	0x3e017e3b	0.1264581
201	0x3e0b9b0e	0.13633367
202	0xbe01ecba	-0.1268796
203	0xbe0bb915	-0.13644822
204	0x3d9a1b46	0.07524733
205	0x3d4132dd	0.047167648
206	0x3da2251c	0.07917234
207	0xbd0d83ff	-0.03454971
208	0x3d31ec3e	0.04343819
209	0x3de4c2f5	0.111699976
210	0xbdc16b2e	-0.09444271
211	0xbce1a9ec	-0.027546845
212	0x3de36203	0.111026786
213	0x3d599a15	0.05312546
214	0xbdfcbdfd	-0.12340925
215	0x3e1a3f45	0.15063198
216	0x3ced00b1	0.028930994
217	0xbdb7d5ea	-0.08976348
218	0x3b7369a1	0.0037141817
219	0x3d24af53	0.040206265
220	0xbd1fa39e	-0.038974397
221	0xbd27e7f8	-0.040992707
222	0xbe020561	-0.12697364
223	0x3dfe55b4	0.1241869
224	0x3d4a3f14	0.049376562
225	0x3b3c6e53	0.0028752282
226	0xbcc3e2c9	-0.02391185
227	0x3adb246c	0.0016719229
228	0xbd23d0ab	-0.039993923
229	0xbc69490b	-0.014238606
230	0x3e3b98bb	0.18319981
231	0xbd5b59ae	-0.053552322
232	0x3d558d6c	0.052136824
233	0x3dce5a54	0.100758225
234	0x3d809692	0.06278719
235	0x3d3cc75c	0.04608856
236	0xbd66e752	-0.056372948
237	0x3e1be970	0.15225768
238	0xbc9feeb3	-0.019523
239	0x3c955d92	0.018233094
240	0x3e0fa19d	0.14026494
241	0x3d907381	0.070532806
242	0xbda2a3e4	-0.07941416
243	0x3d8109ce	0.06300698
244	0x3d3dfe9d	0.046385396
245	0x3da094ca	0.07840879
246	0x3da7d35b	0.0819461
247	0x3e041a06	0.12900552
248	0xbd70c787	-0.058784034
249	0xbcfb1175	-0.030647973
250	0xbd99dce7	-0.07512837
251	0xbd08de25	-0.03341498
252	0x3dc281d3	0.09497418
253	0x3d13734f	0.03599864
254	0x3e098279	0.13428678
255	0xbda379c2	-0.07982208

bias_ih_l0_reverse f4 [120]
0	0x3cdb2bcb	0.02675428
1	0x3e413736	0.18868718
2	0xbbb8a2f0	-0.005634658
3	0x3cba8e2e	0.022772875
4	0x3e331569	0.17488636
5	0xbd56189b	-0.05226956
6	0xbb95def0	-0.0045736954
7	0x3b5a5d63	0.0033319823
8	0xbc8804b6	-0.016603809
9	0x3d9266e2	0.071485296
10	0x3d79fb2e	0.06103056
11	0x3e1cbd41	0.1530657
12	0x3e406915	0.18790086
13	0xbdf09361	-0.1174686
14	0x3d1f6f53	0.038924526
15	0xbd4fcb26	-0.050730847
16	0xbe09732d	-0.13422842
17	0x3dba8302	0.09107019
18	0x3d612f9c	0.054977044
19	0x3d0aa725	0.033850808
20	0x3e3dfed9	0.18554248
21	0x3dfd48c3	0.12367394
22	0x3e071739	0.13192452
23	0x3db5ef56	0.0888354
24	0x39a9d47b	0.00032392502
25	0x3d2470d4	0.040146664
26	0x3dd4f3ab	0.103980385
27	0x3d729c25	0.059230942
28	0x3c22d24c	0.009937834
29	0x3c9ab812	0.0188866
30	0x3e1d5de2	0.15367845
31	0x3dc9779d	0.098372675
32	0xbd9c6c3b	-0.07637831
33	0xbd69bce9	-0.057064924
34	0x3e144cbc	0.14482397
35	0x3deffcc2	0.117181316
36	0xbe28e457	-0.16493355
37	0xbd46b2c0	-0.048510313
38	0x3e1bc7c1	0.15212919
39	0xbd904cef	-0.07045924
40	0x3b20ce95	0.0024537195
41	0xbe184356	-0.14869437
42	0xbd92194d	-0.07133732
43	0xbcedae99	-0.029013919
44	0xbe31eaf9	-0.17374791
45	0xbe14c9ac	-0.14530057
46	0xbe1e16a6	-0.15438327
47	0xbd414685	-0.047186393
48	0x3e0ef02d	0.13958807
49	0x3de782fc	0.1130428
50	0x3c250c21	0.010073693
51	0x3ddcad27	0.10775214
52	0x3e336d3a	0.17522135
53	0xbe0257f0	-0.12728858
54	0xbbf890e8	-0.0075856335
55	0x3d9db4ba	0.077004865
56	0x3d3f3568	0.04668179
57	0xbdbe3c23	-0.09288814
58	0x3c6c52ea	0.014424065
59	0x3d81b344	0.0633302
60	0x3c0fe1e0	0.00878188
61	0xbd144a78	-0.03620383
62	0x3be228ce	0.006901837
63	0xbe3c4963	-0.1838737
64	0xbe16e783	-0.14736752
65	0x3dd1869d	0.102307536
66	0x3df77766	0.1208332
67	0x3d2da7f9	0.04239652
68	0xbe0d5c68	-0.13804781
69	0x3ca86cdf	0.020559726
70	0x3d57d37f	0.052691933
71	0xbe0118b2	-0.12607077
72	0x3e1acb02	0.15116504
73	0x3d8433bb	0.06455179
74	0xbc145dd8	-0.009055577
75	0xbd662a5e	-0.05619275
76	0xbdc9c6e0	-0.098523855
77	0xbd0809a3	-0.033212315
78	0xbe051e07	-0.12999736
79	0xbd68c253	-0.056825947
80	0x3cc64f50	0.024207741
81	0xbe1ce555	-0.15321858
82	0x3e0d9a80	0.13828468
83	0x3db61313	0.08890357
84	0x3db95ba9	0.09050686
85	0x3d5ad603	0.053426754
86	0xbdbc7736	-0.09202425
87	0xbe3e38c1	-0.18576337
88	0x3d461413	0.048358988
89	0x3da8363f	0.082134716
90	0x3d895c25	0.06707028
91	0xbe169498	-0.14705122
92	0xbb201dbf	-0.0024431793
93	0x3e1ae5c8	0.15126717
94	0x3e1cc194	0.15308219
95	0x3dfbf0c1	0.123017795
96	0xbc90e258	-0.017686054
97	0xbc057e31	-0.008147762
98	0xbe0115ec	-0.12606019
99	0xbde7553d	-0.11295555
100	0xbdf5f23b	-0.120090924
101	0xbe056cdf	-0.13029812
102	0xbe11cbd8	-0.14237916
103	0xbceb5b25	-0.028729985
104	0xbd70016f	-0.058595117
105	0x3dab9cdc	0.08379528
106	0xbd8c2f88	-0.06845003
107	0x3e2d9873	0.16952686
108	0xbb27b9f6	-0.002559302
109	0xbe074ee8	-0.13213694
110	0xbdc41209	-0.095737524
111	0xbd27208b	-0.04080252
112	0x3e031e4e	0.12804529
113	0xbd26ccbd	-0.040722597
114	0x3dfb633a	0.12274785
115	0x3c4f0150	0.01263459
116	0xbe0e2e02	-0.13884738
117	0xbca590c4	-0.020210631
118	0x3da635ab	0.08115705
119	0x3e0649c5	0.13114078

bias_hh_l0_reverse f4 [120]
0	0xbe01ffd5	-0.12695248
1	0xbd1696cd	-0.03676491
2	0x3df063b3	0.11737766
3	0xbba76cbc	-0.0051093977
4	0x3de56123	0.11200168
5	0x3e0d29e3	0.1378551
6	0xbd8b624c	-0.06805858
7	0xbce8661a	-0.028368998
8	0xbcc858a4	-0.02445633
9	0x3d9e8789	0.07740695
10	0xbd40b871	-0.047050897
11	0xbd8c0230	-0.06836355
12	0xbcb53f2e	-0.022124853
13	0xbd9096b0	-0.07059991
14	0x3d8ccbad	0.068747856
15	0x3e149d33	0.14513092
16	0x3c42278d	0.01185025
17	0xbd914db2	-0.07094897
18	0xbad69ef6	-0.0016374278
19	0x3e1bcebb	0.1521558
20	0x3e2c016b	0.16797416
21	0xbe10e9eb	-0.14151733
22	0x3e169e3d	0.147088
23	0x3e2533e4	0.16133076
24	0x3cd3d70b	0.025859376
25	0xbdc1fb01	-0.09471703
26	0x3ce9182d	0.02845391
27	0x3cd06b3c	0.025441758
28	0x3da8d621	0.08243967
29	0x3d59ee1b	0.05320559
30	0x3dd99666	0.10624389
31	0xbd73019d	-0.05932771
32	0xbcdecedb	-0.027198246
33	0x3da7f02e	0.082001075
34	0xbd910ac4	-0.070821315
35	0x3dbbbbd2	0.09166683
36	0xbdab7205	-0.08371357
37	0x3dd0e992	0.102008
38	0x3d9d8d85	0.07693008
39	0x3e0adbc4	0.13560396
40	0x3c5c9754	0.013463814
41	0x3dbe902c	0.09304842
42	0xbe1cd9c3	-0.15317445
43	0xbbb35c3e	-0.0054736426
44	0xbca0ab67	-0.019612981
45	0xbe00ddff	-0.12584685
46	0xbcb62962	-0.02223653
47	0xbdc2f9d2	-0.09520306
48	0x3dce9620	0.10087228
49	0xbd57416d	-0.05255263
50	0xbd0c9ef9	-0.034331296
51	0x3bae2416	0.0053143604
52	0x3e35e500	0.17763138
53	0x3d4026ba	0.046911933
54	0xbd6fcf37	-0.058547225
55	0xbdb9f054	-0.09079042
56	0x3c8c28a8	0.01710923
57	0xbd8b8f58	-0.0681445
58	0xbdb87b1d	-0.09007857
59	0xbe32f10e	-0.17474768
60	0xbdd86ef4	-0.10568038
61	0xbdf1bd60	-0.118036985
62	0xbdae07ff	-0.08497619
63	0xbe2ba901	-0.16763689
64	0xbdd06cf2	-0.1017703
65	0x3bfd9ac5	0.007739397
66	0x3cfdad93	0.030966556
67	0x3e000e44	0.12505442
68	0xbe2ee86f	-0.17080854
69	0xbe1c2f47	-0.1525241
70	0xbe168b8c	-0.1470167
71	0xbdf07d2e	-0.11742626
72	0x3ce33ca5	0.027738879
73	0x3dbee4dd	0.09320996
74	0x3d107cf9	0.035275433
75	0xbd4dbed1	-0.050230805
76	0xbe3128a3	-0.17300658
77	0xbd659d74	-0.056058362
78	0xbbe168e6	-0.00687896
79	0x3c732fea	0.014842967
80	0x3e00792b	0.12546222
81	0xbdcf536d	-0.10123334
82	0x3cb8ff4c	0.022582673
83	0x3d2f065a	0.042730667
84	0xbd989ed0	-0.07452166
85	0x3def9546	0.116983935
86	0xbd39de63	-0.0453781
87	0x3d000718	0.031256765
88	0xbdb92a66	-0.0904129
89	0x3d5b4719	0.0535346
90	0x3dda84aa	0.10669835
91	0x3d1393bc	0.036029562
92	0xbda9b8d5	-0.08287207
93	0xbd65c023	-0.05609144
94	0x3e184e25	0.1487356
95	0x3dc25097	0.094880275
96	0xbdde846f	-0.108651035
97	0x3d09e0ce	0.033661656
98	0x3c88aeae	0.016684856
99	0x3d89a7ee	0.06721483
100	0xbd2b8196	-0.04187163
101	0x3d5fecf2	0.054669328
102	0xbc86d32c	-0.016458116
103	0xbdd3a670	-0.1033448
104	0x3c00c238	0.007858805
105	0x3dca2ea2	0.09872176
106	0xbaedf1f8	-0.0018153777
107	0x3ce4517a	0.027870882
108	0xbdc5bf9e	-0.09655689
109	0xbc81c8ef	-0.015842883
110	0x3d79b83f	0.060966726
111	0x3d9b4ebf	0.07583379
112	0xbdd06a59	-0.10176534
113	0xbdbb2e60	-0.09139705
114	0xbe10ad30	-0.14128566
115	0x3e2539a2	0.16135266
116	0xbd81b55d	-0.063334204
117	0xbdfe03b2	-0.124030486
118	0x3d74093b	0.059579115
119	0xbe08a465	-0.13343962
